cart_target_net.pth (torch, 71855 bytes, 6 tensors)

layer1.weight f4 [128, 4]
000000 e8 12 10 3e 9d 46 79 be 37 f3 2a 3f d0 4f 70 3e
       0.14069712 -0.24343343 0.66777366 0.23467946
000010 0d 3a 6d 3e ff 3d 9c be 57 69 66 be 50 5d ca bd
       0.23166676 -0.3051605 -0.22501121 -0.09881079
000020 2c db 6b 3e 84 93 a1 be b5 f9 8d bd 5b 93 6a be
       0.23032826 -0.31557858 -0.069323935 -0.22907774
000030 b2 6d 28 3e fa 09 2d 3e a7 d3 59 3e 0b 52 07 be
       0.16448095 0.16898337 0.21272145 -0.1321489
000040 45 8c c8 3e 14 19 45 be 02 ea 01 3e 6a 40 47 3e
       0.39169517 -0.19247848 0.12686923 0.19458166
000050 63 3b cb 3c 19 7e aa 3e fd a3 9e 3e c4 b1 5f 3e
       0.024808591 0.3329933 0.30984488 0.21845156
000060 ea 0e 8b bd 9b c7 78 3e fb 4a da 3e 6c 9b 89 be
       -0.06789954 0.24294893 0.4263533 -0.2687639
000070 c9 e6 86 bd a5 4b bf bd aa 0a 9c 3d 09 c9 8f 3e
       -0.065869875 -0.093406 0.076192215 0.28083065
000080 69 52 1a bf d8 59 8b 3e 38 22 a7 bc a5 7b 65 3e
       -0.60282 0.27216983 -0.020402059 0.22410448
000090 49 2d f8 be 74 29 9a 3e 05 14 58 3e 3c 2a d1 3e
       -0.4847205 0.3010975 0.21101387 0.40852535
0000a0 c1 16 ed 3d 33 a2 3e 3e 1e 21 fc bd 2a eb b1 be
       0.115766056 0.18616562 -0.12311004 -0.34749728
0000b0 39 17 03 be bd f0 8d 3c ec d1 e6 bd 93 77 e7 be
       -0.12801827 0.017326707 -0.11270508 -0.45208415
0000c0 88 ff a2 be 4d 3b 3e bc 46 3f 4d be 33 2b 31 3e
       -0.3183558 -0.011610818 -0.20043668 0.17301635
0000d0 6e e5 54 be 43 41 c0 be 72 54 26 bf 86 db 95 be
       -0.20790645 -0.3754979 -0.64972603 -0.29269046
0000e0 a6 17 08 3f f2 12 8a 3e 55 fe 91 3d e3 7a 73 3d
       0.53161085 0.2696758 0.07128588 0.059443366
0000f0 5a e2 ea 3e 6d 3a 18 bd cd ef 89 bd e6 4f 8d be
       0.45875818 -0.037165094 -0.067351915 -0.2760002
000100 92 27 78 3e 43 54 40 bd 7b 12 9f 3e 81 32 7a be
       0.24233845 -0.04695536 0.31068787 -0.24433328
000110 c1 1a ee be a5 92 a4 be a0 1a d8 be 38 00 9a 3e
       -0.46504787 -0.3214313 -0.42207813 0.30078292
000120 f4 f1 9b 3d e0 e3 bd bd 26 ea 31 3c 37 15 8a 3e
       0.07614508 -0.09271979 0.010859048 0.2696931
000130 e4 40 13 3e f9 87 61 be 96 fe 04 3f e2 f4 23 3e
       0.14380223 -0.22024526 0.5195097 0.16011384
000140 1a 46 6b be 67 43 91 be 03 ac 1e be 52 2c a7 3e
       -0.2297596 -0.28371736 -0.15495305 0.32651
000150 6d ef a7 be 92 e2 f8 be 48 25 3a be 6c c7 7c bd
       -0.32799855 -0.4861036 -0.18178284 -0.06171362
000160 20 14 9f 3c e4 be 72 be 57 7a 28 bf b2 24 9f be
       0.019418776 -0.23705631 -0.65811676 -0.31082684
000170 c5 e6 1d be a8 eb a4 3e ba 19 e0 be b9 8b 15 3e
       -0.15420063 0.3221104 -0.43769628 0.14604081
000180 b7 80 e5 bd db b3 66 bd 79 cf 0a 3e 43 7d 83 3e
       -0.11206191 -0.056323867 0.13555707 0.25681505
000190 2c 20 c9 3e e9 16 a1 be 50 08 1b bf d9 89 c5 be
       0.39282358 -0.31462792 -0.6055956 -0.38581732
0001a0 d0 b7 d8 3e e5 79 e8 3e d9 19 12 be eb d7 91 bd
       0.42327738 0.45405498 -0.14267673 -0.07121261
0001b0 e9 5c 9a ba 9d a9 ba be d4 ec 05 bf ec a5 eb be
       -0.0011776957 -0.3645753 -0.52314496 -0.46025026
0001c0 c0 81 c2 3e 5f 35 92 3e 5d 62 ac 3e 28 12 e2 3e
       0.37989616 0.28556344 0.33668795 0.44154477
0001d0 ab 83 c6 be 3a 16 c8 3e 81 ec 4d 3d 70 18 88 be
       -0.3877233 0.39079458 0.050274376 -0.26581144
0001e0 e9 ce a3 3d 9d aa c7 bb 08 67 7f 3e a2 20 23 be
       0.07998449 -0.0060933367 0.24941647 -0.15930417
0001f0 a0 6e a5 3e 8d 73 41 be 20 37 33 bf 2d 97 4c be
       0.32310963 -0.18891735 -0.7000599 -0.19979544
000200 bc 92 e3 bb c9 73 c2 3e 8e b4 88 3e ca f3 98 bd
       -0.0069449823 0.37978962 0.26700252 -0.07468374
000210 94 cd d3 3e 20 f8 99 be 4c 75 f7 be 42 1f 75 be
       0.4136778 -0.30072117 -0.48331678 -0.23937705
000220 19 9a 1c bf c9 59 68 bc b5 ab fd bd 87 26 cc 3b
       -0.61172634 -0.014181563 -0.12386266 0.0062301788
000230 60 87 43 3e 81 7c 85 be ab 49 e2 be 7c 31 ac 3e
       0.1909461 -0.2607155 -0.4419683 0.33631504
000240 42 72 8d be 19 ab 91 3e a6 ae 64 3c 4d 1e 51 be
       -0.27626234 0.2845085 0.013957655 -0.20421715
000250 b3 74 24 be 54 af 2f bd 55 0e de 3e 8e cc 39 3e
       -0.16060142 -0.042891815 0.4337031 0.18144438
000260 20 2d 2a be 77 e1 ab 3e bc 43 87 3e 7d 6b 39 3e
       -0.16618776 0.33570454 0.26418865 0.1810741
000270 d5 77 5d 3e e7 42 fd bd eb 23 10 bd a0 62 f9 bd
       0.21627744 -0.12366276 -0.035190504 -0.12177014
000280 83 13 87 bd 7b 4a cd be 7f a5 f1 be 46 81 b5 be
       -0.065955184 -0.40095887 -0.47196576 -0.3545019
000290 b7 e0 04 3e 40 c1 82 be e6 f4 a2 3e df f2 82 be
       0.12976347 -0.25538063 0.31827468 -0.2557592
0002a0 6e 3e c1 3e 77 ed 76 3e 40 53 1e 3f c5 77 4c be
       0.37742943 0.24114023 0.6184578 -0.19967563
0002b0 8f f5 b8 bc 98 05 f5 bd ce 1d 84 3e 1c 1f 84 3c
       -0.022578029 -0.119639575 0.2580399 0.016128115
0002c0 2f 3b 52 be c7 8a 30 be f0 45 52 3f 79 5c bf 3e
       -0.20530389 -0.1724044 0.82137966 0.3737524
0002d0 3b 84 b8 be 39 9c d5 3b 16 ac 6d 3e 96 e7 0a 3d
       -0.36038384 0.0065188673 0.23210177 0.033912264
0002e0 06 b3 c7 be ba 63 ba be 19 a7 e2 3e e0 22 d4 3e
       -0.39003772 -0.3640421 0.4426811 0.41432858
0002f0 ae 10 32 bf c1 6c b5 be 92 44 43 bf b2 00 8a be
       -0.695567 -0.35434535 -0.76276505 -0.26953655
000300 cc 3b ff 3c 3e 60 af 3e db 45 f3 3c 84 85 d5 3a
       0.031156443 0.34253114 0.029696396 0.0016290401
000310 a0 c1 ae 3e 6e bc 62 3e 3f 7e 39 3c 81 78 e1 3d
       0.341321 0.22142193 0.011321603 0.110093124
000320 bc 53 0d 3e 7b b5 98 be 80 71 19 bf 45 ca 44 bd
       0.13801473 -0.2982596 -0.5993881 -0.04804446
000330 ad 9f 91 be c5 26 aa 3c 03 f2 df be 12 71 8b be
       -0.28442135 0.02077044 -0.43739328 -0.27234703
000340 1d 9a 9f bd 5b 68 0d 3e 29 18 6b bd 55 5b c1 be
       -0.07793067 0.1380934 -0.057396088 -0.37764993
000350 a5 cd 9a 3e ed da bb 3c 80 9a 14 be ec 01 10 3d
       0.3023502 0.02293154 -0.14512062 0.035158083
000360 f4 d1 00 3e 06 7c 4e 3e 55 81 dd be 94 e3 9a 3e
       0.12580091 0.20164499 -0.43262735 0.30251753
000370 6f 0d b3 3a 5e 82 54 3e 9b 62 67 3f 1e 6b 4f 3e
       0.001366062 0.20752856 0.90384835 0.20255706
000380 5e bf 99 be 36 e3 e0 be 81 a1 28 bf 49 2e ad be
       -0.30028814 -0.43923348 -0.65871435 -0.33824375
000390 c8 4a 0e bf d1 34 63 be fb 7d 10 bf d0 f1 37 3e
       -0.5558286 -0.22188117 -0.5644223 0.17963338
0003a0 cf 15 8a be d8 ba 7d 3e bc 88 83 3e cf 03 89 3e
       -0.26969764 0.24778306 0.25690258 0.26760718
0003b0 3a 6d b8 be eb a2 8a 3e 16 42 53 3f ad b0 c0 3e
       -0.36020833 0.27077422 0.82522714 0.37634793
0003c0 9b 89 a0 be e9 e4 64 3e 9f d3 9f 3e 20 91 9e 3e
       -0.31354985 0.22352947 0.31216142 0.30970097
0003d0 a1 0f 19 bf d8 cb 27 3e e7 31 ad be 2e 8b f0 bd
       -0.5978947 0.16386354 -0.33827135 -0.117452964
0003e0 7f 0f d3 3d 70 55 c1 3e 71 ce 06 3d cf 80 d0 3c
       0.1030569 0.37760496 0.03291172 0.025452046
0003f0 bc e1 d9 be 17 fa 78 bd 75 44 07 bf 85 c9 a8 be
       -0.42555034 -0.06078538 -0.5283883 -0.32966247

layer1.bias f4 [128]
000000 83 71 1d 3e 50 24 28 3f 08 44 1d 3f 70 48 e0 3e
       0.15375333 0.6568041 0.6143193 0.43805265
000010 5f 43 bd 3e 3c ab 13 3e 59 4d 21 3f 63 e2 0c 3f
       0.36965463 0.1442079 0.6300865 0.5503294
000020 37 9f 47 be a3 ef 72 be f8 e3 a9 3e 1d ad c7 be
       -0.1949433 -0.23724227 0.3318174 -0.38999262
000030 56 1e ab be 66 16 19 be f2 6a 74 be 6a 55 cd be
       -0.33421582 -0.1494995 -0.23868921 -0.40104228
000040 f2 b3 eb be 25 68 d3 be a0 83 be be 28 6f d8 be
       -0.46035725 -0.41290393 -0.37209797 -0.42272305
000050 05 99 bc be e8 9d c1 bc 44 b1 29 3f 14 4c e2 3e
       -0.36835495 -0.023634866 0.6628611 0.44198668
000060 fd be 26 3f 2a 57 c5 be 35 5e ed be e1 f4 0e be
       0.65135175 -0.38543063 -0.46360937 -0.13960601
000070 ea 78 c6 be b6 db 18 3e 6d 39 10 3f 19 53 3e 3e
       -0.38764125 0.14927563 0.56337625 0.18586387
000080 50 ea 93 3e 8b be e9 3e a0 6b 39 be 58 94 1b 3d
       0.28889704 0.45653185 -0.18107462 0.03798327
000090 76 61 2f 3f 12 19 5a be e1 b1 0b 3f e0 0f ad be
       0.6850809 -0.21298626 0.54568297 -0.33801174
0000a0 f4 71 fb bd 9b 2b 86 be dc 56 80 be 70 3f 1a 3f
       -0.12277594 -0.26205143 -0.25066268 0.6025305
0000b0 49 74 96 3d 8e 3d db 3e 98 40 a7 3e b0 fb 4a 3d
       0.073463984 0.428204 0.3266647 0.049556434
0000c0 f2 71 cf be 4b 52 f4 bd 47 a8 1d 3f 45 56 c0 be
       -0.4051662 -0.11929759 0.61584896 -0.37565818
0000d0 70 2b a5 be e5 cd db 3e e3 56 2e 3f 3e 60 87 be
       -0.32259703 0.42930523 0.6810133 -0.26440614
0000e0 f7 e9 bb bd 1f e6 5a be 2e dd 32 3f 79 88 57 be
       -0.09175485 -0.21376847 0.69868743 -0.21048154
0000f0 d5 31 8a be 77 79 e8 3c 0f aa c8 3e 0b 87 d1 be
       -0.26991144 0.028378231 0.39192244 -0.40923342
000100 72 8a dd bd 80 ec d0 3e 0f 5e 0c 3f dd 74 a8 3e
       -0.10817422 0.40805435 0.5483102 0.3290166
000110 b5 cf 15 3f f7 67 0b be dd 4b 9c 3e 86 6d fa 3e
       0.5852006 -0.13613878 0.3052663 0.48911685
000120 7e b8 11 be d0 d5 c8 be ee a7 e8 3e f1 8d 0e 3f
       -0.14230534 -0.39225626 0.4544062 0.55685335
000130 c2 11 1c 3f 2d 31 df bd 24 c8 8d be 1f 97 c9 3e
       0.60964596 -0.108980514 -0.27691758 0.3937311
000140 1c a5 ee 3e 0c 9a b8 be 0e 09 1d 3f 60 d3 8a 3e
       0.46610343 -0.36055028 0.6134194 0.2711439
000150 cc 74 2a 3f 4a 71 ff be 6b 04 bc be 26 ea 1a 3f
       0.6658447 -0.4989112 -0.3672212 0.6051353
000160 58 b0 b2 be c4 cf b2 3e cb 7d bf bd e2 b1 30 be
       -0.34900165 0.34924138 -0.09350165 -0.17255357
000170 ef a7 24 3f e3 f4 2b 3f 7f 0b 9e be 77 ef 36 3f
       0.64318746 0.6717054 -0.30868146 0.71459144
000180 07 52 02 3f 09 8d c7 be 6d e1 3a be a8 5c d7 be
       0.50906414 -0.3897479 -0.18250056 -0.4206288
000190 36 49 13 3f 0b d0 12 3f f8 02 1a 3f 2e 45 46 be
       0.57533586 0.573487 0.6016078 -0.19362327
0001a0 66 8b ce be 3c 84 ae 3e 02 e4 71 3b 15 cb 0b 3f
       -0.40340728 0.34085262 0.0036909585 0.54606754
0001b0 e6 17 08 bf 64 87 b7 3e 48 36 07 be a4 c7 4d 3e
       -0.53161466 0.35845482 -0.132043 0.20095688
0001c0 0f 19 9a 3e f7 ce fa 3e c5 f9 5f be e8 7f 79 be
       0.30097243 0.48986027 -0.21872623 -0.24365199
0001d0 9f 88 85 be 4c d8 34 3f 60 66 d6 3e 8e 9f b2 be
       -0.26080796 0.7064254 0.4187498 -0.34887356
0001e0 87 9d 02 3f 2e 56 e3 be 03 3f 78 3e 57 d3 05 3f
       0.5102162 -0.44401687 0.24242787 0.52275604
0001f0 7e ee b0 3e 49 20 db 3e 0a c0 00 3e df 76 81 3e
       0.34556955 0.4279807 0.12573257 0.25286004

layer2.weight f4 [128, 128]
000000 56 25 07 3c c3 a7 55 bd 61 f5 08 3b 3d da 0e bc
       0.008248648 -0.052161943 0.002089821 -0.008719024
000010 e6 0d 46 3d cc 5b a9 3a 61 73 c5 bc de 65 41 3d
       0.0483531 0.0012921034 -0.024102869 0.04721629
000020 50 c8 56 be 9f d5 84 be 64 4c fd 3d 8b 78 93 3e
       -0.2097485 -0.2594423 0.12368086 0.28802904
000030 35 be 81 3e ad 68 5a 3d 0a 64 f4 3d fb db 0b 3e
       0.2534043 0.053322483 0.119331434 0.13658135
000040 be ec cd 3d d4 9d e0 3d 57 d4 37 3d b3 4b 88 bd
       0.100549206 0.10967603 0.044880237 -0.066550635
000050 4e 2e d0 3d 8f 1a 3d 3d 99 a2 21 3d 4b 03 89 bd
       0.10165082 0.046167906 0.039461706 -0.06690081
000060 e7 87 50 bc 23 50 37 3e ff 76 34 3e 7a fb 69 3e
       -0.012727714 0.17901663 0.17623518 0.22849837
000070 02 08 75 bd 09 d0 0c 3e 42 c6 40 bd 52 d9 46 3e
       -0.05982209 0.13751234 -0.047064073 0.19418839
000080 68 66 cc 3c 3e e3 c5 3d cf 35 5b be 1f 5c ff 3d
       0.024951175 0.09662484 -0.21407245 0.124687426
000090 5d 6b 0b bd 70 64 20 be 62 52 94 bd ed 08 bd 3d
       -0.034037936 -0.15663314 -0.07242276 0.09230218
0000a0 fa e3 86 3e fc 96 21 bd 51 54 d0 3d e8 e0 fc bd
       0.26345807 -0.03945063 0.10172332 -0.12347585
0000b0 56 7c e7 bd 94 98 4a bd 10 bd 07 bd e3 f1 1d 3e
       -0.11303012 -0.049461916 -0.03313929 0.15424304
0000c0 86 2e 0d 3e 48 83 4c 3e ab 69 8b 3b e0 ff ac 3e
       0.13787279 0.19971955 0.00425454 0.33788967
0000d0 5f ac a3 3d 0e 65 b4 3d 42 12 e5 bc a4 6e 79 3d
       0.079918616 0.08808337 -0.027962808 0.06089653
0000e0 fa 0e 97 3d 52 7a e0 3a 3e cc ef bd e7 79 c3 be
       0.073759034 0.0017126298 -0.11708878 -0.38178942
0000f0 72 cd e1 be 0a df ca 3e 37 aa 89 3d bc bf 5f 3e
       -0.44102055 0.3962329 0.06721919 0.21850485
000100 3a c6 9c 3d 48 b3 0b bd 71 5b c3 bd 8c 9b ed 3d
       0.07654996 -0.034106523 -0.095389254 0.11601934
000110 a3 1e ac bd 69 42 92 3e a2 bc 8a 3d 75 08 d2 bc
       -0.08404281 0.28566292 0.0677426 -0.025638798
000120 87 2f 19 3d 84 eb 05 bf 9f 3a ca bd 87 b3 35 3d
       0.03739884 -0.52312493 -0.09874462 0.044360664
000130 59 3b 5e bc 03 b2 03 3e eb 1c 17 bf 31 aa 53 bb
       -0.013563954 0.12860875 -0.590285 -0.0032297487
000140 d2 08 5b 3d 84 d8 1b 3e 06 ad 9d bd 49 be 9d bd
       0.05347521 0.15219313 -0.07699017 -0.0770231
000150 c0 e5 c0 3c 67 db c8 3e 3b 48 c8 be b5 d8 4d 3d
       0.023547053 0.3922989 -0.39117607 0.050255496
000160 00 2d 12 bd 9c 90 d5 3d f2 11 bc 3d 88 c7 2b be
       -0.035687447 0.10427973 0.0918311 -0.16775334
000170 24 e4 97 bd 7d d9 b7 bb 4c 90 da 3d 0a a4 a0 3c
       -0.07416561 -0.0056106434 0.10672054 0.01960947
000180 db 36 40 bd b0 40 0f bf 85 47 bc 3d 1e a0 16 3d
       -0.046927314 -0.5595808 0.09193329 0.036773793
000190 2e a4 00 3c 85 86 37 bd 95 6a 0e bd df 36 18 bf
       0.0078516435 -0.044806022 -0.034769613 -0.59458727
0001a0 d3 d3 a7 3e 3d 11 1d 3e f2 59 98 3b 84 a6 d3 bc
       0.32778797 0.15338607 0.004649394 -0.025836237
0001b0 c9 15 9d 3d 39 f2 b2 3d c9 e4 2f 3e be ab 76 3d
       0.07670171 0.087376066 0.17177118 0.06022238
0001c0 6d 3d f1 3d 99 48 0d be 5e 21 b7 be 03 a4 97 be
       0.11779294 -0.13797225 -0.35767645 -0.2961732
0001d0 02 15 62 3c 1f 28 3c 3c 87 c9 03 bd ab 6a 18 bd
       0.013798954 0.011484175 -0.032174613 -0.0372111
0001e0 43 70 a8 bc 7f 53 10 3e 0f ff 88 3e fb 76 86 3d
       -0.020561343 0.14094351 0.26757094 0.065656625
0001f0 1c 86 17 3e c7 23 28 3d 4a 02 43 3d 8a 79 b1 3c
       0.14797252 0.041049745 0.047609605 0.0216644
000200 09 37 6a 3d e4 9a 5d 3e 84 d4 80 3e 4d 33 31 3e
       0.057181392 0.21641117 0.25162137 0.17304726
000210 6f 77 33 3d ea a4 d0 3c f0 2d 6f 3e 55 7d 2a 3e
       0.043815073 0.025469262 0.23357368 0.16649373
000220 2a 9f 97 be 7e 1c b3 bb e7 0f e1 3d b1 1d 39 be
       -0.2961362 -0.005466043 0.10989361 -0.18077733
000230 20 f1 ab be 1c 40 02 bf f6 86 4e be e3 ad f3 bd
       -0.335824 -0.50879073 -0.20168671 -0.11898401
000240 04 70 5e be fd 36 2b be f0 8a 33 be 60 ad 79 be
       -0.21722418 -0.16720195 -0.17533469 -0.24382544
000250 02 77 99 bd d9 7c 55 be ee ac 3b 3e 28 f2 43 3e
       -0.07493402 -0.20848407 0.18327686 0.19135344
000260 a1 24 96 3d 90 cd 48 be 42 f0 e4 bd 85 b3 71 be
       0.07331205 -0.19609666 -0.11178638 -0.23603638
000270 33 c7 37 be 72 32 de 3d b0 86 3d 3e f7 90 6d 3c
       -0.17947082 0.108494654 0.1850841 0.014499894
000280 de 04 0e 3e cf 44 81 3e 56 f2 a9 be 89 5c 17 bc
       0.13869044 0.2524781 -0.331927 -0.009238371
000290 bb 3b 38 3e ea 62 85 bd e9 69 29 3e 81 6f 0c be
       0.17991535 -0.06513007 0.16544308 -0.1371441
0002a0 3b f4 11 bf 00 e7 18 bd 79 1d e6 bd da e6 31 3e
       -0.5701329 -0.037329674 -0.1123609 0.17373219
0002b0 2b a8 64 3d 2c 6b e3 3d ff 1d 06 bc 50 71 8f be
       0.05582444 0.11104426 -0.008185863 -0.28016138
0002c0 2a 44 1f be 83 1e 30 be 6d 1e e3 3d f3 70 d4 be
       -0.15553346 -0.1719914 0.11089788 -0.41492423
0002d0 f1 6b b8 bd 89 03 8b 3d 2c 97 22 3e 7e 56 22 bf
       -0.09004963 0.06787784 0.1587798 -0.63413227
0002e0 67 ac b1 be fe f7 25 be 71 5d 35 3e 8b 0e 9d bd
       -0.34701845 -0.16207883 0.17711426 -0.076687895
0002f0 0a f4 2d be a0 6e 57 be 46 aa 2c 3e da be c1 be
       -0.16987625 -0.21038294 0.16861829 -0.3784092
000300 75 2a 65 3d 28 30 4b 3d c8 e4 4e 3e 61 9a bd bc
       0.055948693 0.049606472 0.2020446 -0.023144903
000310 68 f0 41 3e 51 0b fe be 2a ff 51 3e e8 68 26 3e
       0.18939364 -0.4961801 0.20507494 0.16250956
000320 82 b8 06 be f3 4e b3 be a0 38 b7 3d bb f8 be 3d
       -0.13156322 -0.3502117 0.08946347 0.09324785
000330 66 ea 02 3e 6f ff cc bd 6b 11 6b be c8 54 4e 3d
       0.12784728 -0.100096576 -0.22955863 0.050373822
000340 00 13 6a 3e 1c 93 22 be d5 03 5c 3e f1 cd 95 3d
       0.2285881 -0.1587643 0.21485837 0.07314671
000350 5a dd 35 3e e3 a5 1e bf 58 4c 58 be 10 12 3a 3e
       0.1776022 -0.61971873 -0.21122873 0.18170953
000360 42 36 0b be d4 b7 3f bb c5 02 ed bd 02 f9 c8 be
       -0.13594916 -0.0029253857 -0.11572794 -0.39252478
000370 84 01 8a 3d 5d 24 c6 3d 0b 1f 70 be 9a cd 68 3e
       0.0673857 0.096749045 -0.23449342 0.22734681
000380 e6 b2 66 3e 63 69 48 be a7 05 b8 be 32 e7 7d be
       0.22529182 -0.19571452 -0.35941812 -0.24795225
000390 6d ec 09 3e bd 4f c6 3d 5e f9 7a 3e 3b 5b 76 be
       0.13469096 0.096831776 0.24509189 -0.24058239
0003a0 4a bc c2 be 07 55 26 3e f5 56 c5 bd 12 45 c7 3d
       -0.38034278 0.16243373 -0.09635726 0.09729971
0003b0 f9 c7 8e be 11 10 e3 3d 63 f7 dd be 78 81 b6 3e
       -0.27886942 0.11087049 -0.43352804 0.35645652
0003c0 4e 66 b2 3d be aa 32 3e 54 1b 1a be 6a 7d 02 be
       0.08710919 0.17447945 -0.15049487 -0.12743154
0003d0 6e 89 d0 bd cb 03 73 3e 77 42 03 3d 93 36 87 be
       -0.10182463 0.23731916 0.032045808 -0.26408824
0003e0 0c 2b 55 3e 60 b8 a9 be bb 60 4e 3b b8 e6 1b 3d
       0.20817202 -0.3314848 0.0031490761 0.038061827
0003f0 a1 59 34 3d 35 6e 72 3e 79 45 bd 3d aa f4 1a 3d
       0.04403079 0.23674853 0.092417665 0.037830986

layer2.bias f4 [128]
000000 17 03 a1 bc 98 68 1b 3e cc e1 6a 3e 5c 2e 91 bc
       -0.019654794 0.15176618 0.22937697 -0.017722301
000010 97 9d f7 3d 7f a4 00 be 15 0f 8f 3e be 9b 37 3e
       0.12090605 -0.1256275 0.27941194 0.17930505
000020 09 c5 6a 3e f3 52 74 3d 59 64 81 3e df 5d 3c 3e
       0.22926725 0.05964942 0.25271872 0.18395184
000030 1d 50 15 3e 12 ac 2e 3e b1 5e 94 bb f2 a0 8e 3e
       0.14581342 0.17057827 -0.0045278897 0.27857167
000040 1b d0 89 bd 71 cd 62 3e 6c 4b 2f 3e 76 cf 83 3e
       -0.06729146 0.22148682 0.17118615 0.25744218
000050 05 0e a6 3d 66 7e d0 bc b0 a9 10 3c 69 72 fb 3d
       0.08108143 -0.025450896 0.008829519 0.122776814
000060 1e 4e cc ba 94 24 83 bd 11 2f 26 bd eb c7 f3 bb
       -0.0015587246 -0.06403461 -0.04057223 -0.0074396036
000070 6d 37 a1 3c a8 13 e6 3d 6d 4d 64 3e a6 bf 52 3e
       0.01967975 0.11234218 0.2229516 0.2058092
000080 01 83 09 3e 98 57 85 3e 65 6d 5c 3e 45 11 2e 3e
       0.1342888 0.2604339 0.21526106 0.16998775
000090 a6 86 30 3e 56 cb d9 3d 6e 86 a9 bd fe 38 b8 3e
       0.17238864 0.106344864 -0.082775936 0.35980982
0000a0 ae 12 1f 3e dc d2 a9 bb b3 c3 2d 3e 2a 52 3e 3d
       0.1553447 -0.005182607 0.16969185 0.046465077
0000b0 f8 04 46 bd 54 e4 7c 3e 99 fc 62 3e a9 d0 07 bc
       -0.048344582 0.24696475 0.22166671 -0.008289495
0000c0 ea e7 76 3d 73 f4 9a 3e 4e 94 d3 3d 2b 40 00 3d
       0.060279764 0.30264625 0.10331021 0.031311195
0000d0 d5 80 24 bd 3b 74 8e bd bb 36 5d 3c db 4e 12 3e
       -0.040161926 -0.06955763 0.013501818 0.14287893
0000e0 86 3a 39 3e c4 34 4f 3d c0 b8 0c bd 73 2f c8 3d
       0.18088731 0.05058743 -0.03435588 0.09774675
0000f0 6a e4 eb ba ad 2b 48 3d c5 de 9b 3e 6a 94 71 bc
       -0.001799715 0.048869777 0.30443397 -0.014744857
000100 22 4b 15 bb a4 6b 00 3e a6 78 b3 bd 56 6f 33 bd
       -0.0022780378 0.12541062 -0.08763246 -0.04380735
000110 76 3b 6a 3e 48 57 86 3e ab 86 95 3a af d4 a6 bd
       0.22874245 0.26238465 0.0011407932 -0.08146035
000120 d9 0c 4b 3e 09 70 27 3e 05 a7 03 bd 10 6c 81 bd
       0.1982912 0.16351332 -0.032141704 -0.063194394
000130 c6 64 b1 3d e3 1e 1d bd 08 3b 77 bd 94 77 4f 3d
       0.08661799 -0.038359534 -0.06035903 0.050651148
000140 14 4c 53 3d b3 a3 93 3d 68 b7 cf 3d 15 0f 8f 3e
       0.051586226 0.072089575 0.10142404 0.27941194
000150 2e dc 92 3d 47 d0 3f 3e 01 bd 7a 3e ae df 08 3e
       0.07170902 0.18731795 0.24486162 0.13366577
000160 06 ba d9 3c 87 cf 80 3e 5c 96 22 be 6e 8b 50 3e
       0.02657796 0.2515833 -0.1587767 0.20365688
000170 18 bf 6c 3e 40 28 84 3d 36 8f 3d bd 17 fd 1c 3e
       0.23119771 0.064529896 -0.046279155 0.15330921
000180 00 a1 09 3c c2 a3 60 3e 5f a6 1b 3e bb 56 46 3e
       0.008400202 0.21937469 0.15200184 0.19369023
000190 19 65 bf 3d 1c ab 36 3e 58 d8 13 bd ca d2 2a 3c
       0.09345455 0.1783871 -0.036094993 0.010426233
0001a0 ea e9 29 be 23 e2 05 bc bb 85 b9 bc a4 40 62 bd
       -0.16593137 -0.008171591 -0.022646775 -0.055237427
0001b0 63 8a c5 bd 62 0b 25 3e 03 9e c9 3c ad fa d9 3d
       -0.09645536 0.16117623 0.024611479 0.10643516
0001c0 22 3b 2b be a0 28 2d 3e f1 4e d6 3c b6 c3 14 bc
       -0.16721776 0.16910028 0.02616069 -0.009079864
0001d0 63 60 bd bd 2d 4c 04 be b5 b0 9d 3e 83 bb 92 3e
       -0.092469 -0.12919684 0.3079888 0.28658685
0001e0 13 68 63 3d 43 4f 75 3d 6c 70 09 3e a7 f3 f8 3d
       0.055519175 0.059890043 0.13421792 0.12155848
0001f0 e3 9b 4d 3e 93 5e 89 3e 19 79 42 be 95 db 1c bd
       0.20078997 0.26829967 -0.18991508 -0.038295347

layer3.weight f4 [2, 128]
000000 af 0e 0f 3b d2 25 be 3e 92 7e 8b 3e 53 c1 ba bd
       0.002182882 0.3713823 0.27245003 -0.09118905
000010 7d 22 24 3e 0b 92 f3 be 64 a0 be 3e 40 3b b7 3e
       0.16028781 -0.4757236 0.37231743 0.35787392
000020 87 e8 46 3e 05 c2 9b bc 0e 86 96 3e da 12 ba 3e
       0.1942464 -0.019013414 0.2939915 0.36342508
000030 cd c6 9c 3e 33 da ba 3e d6 ca 02 bd c3 9e 9d 3e
       0.30620423 0.36494598 -0.03193172 0.30785188
000040 14 17 87 bd d1 2d c9 3e ac e2 82 3e 5a 8d 9b 3e
       -0.06596199 0.39292768 0.25563562 0.3038128
000050 ab 57 a4 3e f1 17 85 bc e9 b6 6b 3e e2 3c b6 3e
       0.32098135 -0.016246768 0.23018993 0.35593325
000060 f0 0a 02 3c 41 d9 a7 be 4c 62 44 bc 3b 92 72 bb
       0.007937178 -0.3278294 -0.011986326 -0.003701343
000070 6e 51 27 3a 44 fb a8 3e 03 53 91 3e 15 57 83 3e
       0.00063826784 0.330042 0.28383645 0.25652376
000080 df 52 b6 3e 08 f0 b7 3e 86 31 c3 3e 2c be 5a 3e
       0.356101 0.35925317 0.3812372 0.21361607
000090 1e de 74 3e 25 7a 7f 3e c6 6c 4c bd 8a a6 94 3e
       0.23912856 0.24948938 -0.049908422 0.2903331
0000a0 8e 2d 97 3e f6 d8 ff bd 0f a7 ab 3e c8 e2 85 3d
       0.29526943 -0.12492554 0.33525893 0.06537396
0000b0 27 0d 31 bd 6d f6 89 3e 08 db 9c 3e 02 28 08 be
       -0.043225434 0.2694582 0.30635858 -0.13296512
0000c0 3a b3 87 be 99 dd be 3e 06 07 9d 3e 08 bf 8d bd
       -0.26503927 0.3727844 0.3066942 -0.06921202
0000d0 11 d1 40 3d 3d 9d 87 bd b2 64 f8 3c 6d b2 bc 3e
       0.04707438 -0.06621788 0.030321453 0.36854878
0000e0 7c 1f ac 3e 5d 99 1c be 56 f7 35 bf 1b be 8f 3e
       0.3361777 -0.15292878 -0.7108053 0.28074726
0000f0 13 c4 f2 3c 6f d1 74 bc 04 f9 82 3e f8 a8 4d bc
       0.029634511 -0.014942511 0.2558061 -0.012552492
000100 23 eb 3b 39 d8 17 80 3e 8a 62 4f be 7b f7 be be
       0.00017921305 0.2501819 -0.20252433 -0.37298188
000110 76 bf 97 3e 99 ef 8a 3e 12 da 04 be 21 e8 a2 be
       0.2963826 0.27135924 -0.12973812 -0.31817725
000120 35 95 77 3e 97 2b 98 3e f3 3e 15 be 4e 57 2c 3d
       0.24178012 0.29720756 -0.14574794 0.042075448
000130 00 50 f8 3e 37 c0 c2 bb 75 c3 a4 be 62 6f ae bb
       0.48498535 -0.005943324 -0.32180372 -0.0053233365
000140 e9 fe 20 3e 2b 67 94 bd d8 9b b6 3e bb 84 55 3e
       0.1572224 -0.0724624 0.35665774 0.20851414
000150 ed 21 93 3e b0 59 b0 3e 16 3a ac 3e 59 af a4 3e
       0.2873682 0.34443426 0.33638066 0.3216503
000160 6e 4d dd bd b8 c1 1a 3e 82 a5 8f be da cd 56 3e
       -0.10805784 0.1511296 -0.2805596 0.20976964
000170 4a 59 82 3e 56 42 a4 3e 73 6a 94 be 7e e2 90 3e
       0.25458747 0.3208186 -0.28987464 0.282978
000180 7f 99 a9 be 64 1e 8c 3d 69 f2 84 3e 9e 12 ab 3e
       -0.3312492 0.06841734 0.25966194 0.3341264
000190 8a eb 67 3e fd f8 dd 3c 42 dd 55 3e ad 14 07 bd
       0.22648445 0.027096266 0.20885184 -0.032978702
0001a0 4a 2b a3 be 3b 5c 1e be 33 ff 56 be da ec ed bc
       -0.31868964 -0.1546487 -0.20995788 -0.029043604
0001b0 01 7a 94 bd 88 b0 78 3e 4d 8c 18 bd e0 a7 92 3e
       -0.07249833 0.24286091 -0.037243176 0.28643703
0001c0 8a de d9 be 3b d3 6d 3e 71 0f 98 3e 2e 56 6f be
       -0.42552596 0.2322511 0.2969928 -0.23372719
0001d0 44 b6 bf be bb c9 c6 be df 79 96 3e d9 ce 9e 3e
       -0.37443745 -0.38825783 0.29389855 0.31017187
0001e0 54 fd 90 3e 8d 7d a6 bd 33 97 b7 3e 28 38 ac 3e
       0.28318274 -0.08129416 0.35857543 0.33636594
0001f0 ec 17 bb 3e f7 ae 82 3e 03 fe 43 bf 00 09 56 bd
       0.36541688 0.25524113 -0.76559466 -0.052254677
000200 fd b3 cb be aa 39 9d 3e 94 4f a1 3e 93 99 80 be
       -0.39785758 0.30708057 0.31506026 -0.25117168
000210 f1 84 89 3e 92 26 70 bf fb ad 8a 3e 9b 90 5a 3e
       0.2685924 -0.93808854 0.27085862 0.21344225
000220 84 1c a5 3e 3f 92 8a 3b 81 63 4c 3e 02 ae 8c 3e
       0.32248318 0.0042288597 0.19959833 0.27476507
000230 42 92 b7 3e 06 23 c3 3e e9 e5 8a bd 37 b4 b6 3e
       0.35853773 0.38112658 -0.06782133 0.35684368
000240 b9 ca 00 bd 8b 39 9e 3e 26 77 9c 3e 1f b7 39 3e
       -0.03144333 0.30903277 0.30559653 0.18136261
000250 45 92 82 3e c1 1f 03 be 0b 12 e9 be 64 ac a6 3e
       0.2550222 -0.12805082 -0.45521578 0.325534
000260 60 f9 a8 bc 67 9c 8e bc e8 68 2c bd 7f 40 79 bd
       -0.020626724 -0.017408563 -0.042092234 -0.060852524
000270 b2 4f ee bc bb c4 a0 3e e3 25 a6 3e 20 ae a1 3e
       -0.029090736 0.31400093 0.3245078 0.3157816
000280 b1 17 9f 3e d4 e6 7e 3e 63 a1 be 3e e9 41 aa 3e
       0.31072763 0.24892741 0.37232503 0.3325341
000290 19 a9 a3 3e 69 d7 a0 3e a2 5a 8e be f5 9b b0 3e
       0.3196495 0.31414345 -0.27803522 0.34493986
0002a0 27 0d b4 3e 2b a9 9d bd 39 24 94 3e 77 57 19 bd
       0.35166284 -0.07698282 0.28933886 -0.03743693
0002b0 0d bd 3f bd 39 28 9b 3e 5f 42 c7 3e 22 5f e1 3d
       -0.046811152 0.30304125 0.38917825 0.11004473
0002c0 d1 fb 22 be b5 81 b7 3e 1c 83 9e 3e 5c b3 08 be
       -0.15916373 0.35841146 0.30959404 -0.1334967
0002d0 b5 3a bc bc 21 c4 91 3c 85 51 11 3d b7 58 c3 3e
       -0.022977212 0.017793717 0.035478134 0.38153622
0002e0 65 c2 bb 3e d4 9c 7e bd 16 bd 2b bf 59 f0 a8 3e
       0.3667175 -0.06216128 -0.670854 0.3299587
0002f0 12 31 6d be ca a8 ad bc 64 e6 85 3e 1a f2 6c bd
       -0.2316325 -0.021198649 0.26152337 -0.057848074
000300 d2 2c 3a bd 19 21 d5 bd 63 f7 36 be fb 37 f3 be
       -0.0454529 -0.104067035 -0.17867808 -0.47503647
000310 bf e4 a4 3e 04 86 8f 3e 9e 87 11 be fc 63 24 bf
       0.3220577 0.28031933 -0.1421189 -0.64215064
000320 bb d8 90 3e 5b bd 83 3e bb 30 35 be 09 9c 22 3d
       0.28290352 0.25730404 -0.1769437 0.039699588
000330 04 e7 96 bc 27 64 c9 3c cd 58 43 3e 98 3f 0d bd
       -0.018420704 0.02458389 0.19076844 -0.034484476
000340 35 78 0c 3d 92 10 ad bc 88 53 7f 3e bd bb 99 3e
       0.034294326 -0.021126065 0.24934208 0.30026045
000350 5c 54 48 3e ee d1 b5 3e a5 e3 ba 3e e7 37 aa 3e
       0.1956343 0.35511726 0.36501804 0.33245775
000360 e4 a1 72 3a 41 bc 9b 3e a5 41 9a be 76 1f 8e 3e
       0.0009255691 0.30417064 -0.30128208 0.27758378
000370 d1 23 a6 3e 6d e3 a9 3e ab 63 16 3c e4 cb a7 3e
       0.324492 0.33181325 0.009179036 0.32772744
000380 1a af 3b be 19 76 78 3e ee cc 72 3e 79 2e 93 3e
       -0.18328515 0.242638 0.23710987 0.28746393
000390 be 73 8e 3e 78 00 ab 3e 98 01 9b be 38 85 02 3d
       0.2782268 0.33398795 -0.30274653 0.03186533
0003a0 4f a0 b1 be 5d 6b 04 bc 93 3f 7d be ab 68 9a 3b
       -0.34692618 -0.008082238 -0.24731283 0.0047121844
0003b0 47 cb c7 be 2d 1a 99 3e 78 bb bf bc 43 73 a3 3e
       -0.39022276 0.29902783 -0.023404822 0.31923875
0003c0 fb 2e 74 be 19 dc 9b 3e bc fa aa 3e af 5c c4 be
       -0.23846047 0.3044136 0.3339442 -0.38351962
0003d0 14 1e a0 bd 6a 98 31 be b1 90 83 3e f1 e9 a4 3e
       -0.07818237 -0.17343298 0.25696328 0.32209733
0003e0 d9 2e b7 3e 5e 74 f9 bc dc 4a 90 3e 61 49 3e 3e
       0.3577793 -0.030450996 0.28182113 0.1858268
0003f0 66 e3 c4 3e 5f ae 49 3e 48 0e 44 be ff 43 98 bc
       0.3845474 0.19695424 -0.19146073 -0.01858711

layer3.bias f4 [2]
000000 dc 11 e2 ba 69 cc 57 bc
       -0.0017247754 -0.013171294
