cart_policy_net.pth (torch, 71855 bytes, 6 tensors)

layer1.weight f4 [128, 4]
0.14067735 -0.24337038 0.6676271 0.2345868 0.23162061 -0.30508906 -0.22496955 -0.09884794
0.23028198 -0.3155018 -0.06931284 -0.22908562 0.16444549 0.16876873 0.2126164 -0.13180755
0.39160126 -0.19238903 0.12681694 0.19428779 0.024794627 0.33282825 0.3098393 0.21853013
-0.067884654 0.24279995 0.42620376 -0.26854265 -0.06585432 -0.0933739 0.07616186 0.28065914
-0.6025846 0.2722038 -0.02040275 0.22397211 -0.48448473 0.30109715 0.2109744 0.40839177
0.11574958 0.18615897 -0.123133644 -0.34746903 -0.12800792 0.017360587 -0.112859726 -0.45205483
-0.31829023 -0.0116083985 -0.20039496 0.17298059 -0.20787872 -0.3751214 -0.64931923 -0.2936578
0.53150356 0.26962215 0.07127094 0.05943143 0.45866272 -0.037157618 -0.067338504 -0.27594656
0.24229069 -0.046945672 0.31062236 -0.24428266 -0.464907 -0.32125667 -0.42199275 0.3006695
0.076179914 -0.09291629 0.010733633 0.2697945 0.14380981 -0.22044875 0.51925635 0.16027169
-0.22968194 -0.28360024 -0.15492976 0.32644576 -0.3279693 -0.486017 -0.18144916 -0.061454955
0.019416127 -0.23699714 -0.65799195 -0.3108242 -0.15416913 0.32205513 -0.43761376 0.14595549
-0.1120376 -0.05629536 0.13552567 0.2566366 0.3927461 -0.31456235 -0.6054759 -0.38573983
0.4231943 0.45397112 -0.1426594 -0.07121368 -0.0011642119 -0.36450794 -0.52323633 -0.4601434
0.37981868 0.28550383 0.3366224 0.44145527 -0.38766265 0.39072117 0.050411034 -0.26570833
0.07996935 -0.006080592 0.24936865 -0.15932393 0.3230555 -0.1889233 -0.7000413 -0.19975266
-0.0069316444 0.37974483 0.26694563 -0.07471965 0.41359589 -0.30065387 -0.48323315 -0.23937835
-0.6115877 -0.014225656 -0.12396043 0.006281852 0.19088873 -0.26067433 -0.44186693 0.33626145
-0.27621084 0.2842502 0.013881387 -0.2038228 -0.16058396 -0.042701006 0.43371055 0.18127765
-0.16615365 0.33565122 0.26413882 0.18098314 0.21623275 -0.12363745 -0.03518304 -0.121744834
-0.06594201 -0.40059644 -0.4717926 -0.355457 0.12973665 -0.255327 0.3182091 -0.25570557
0.37735716 0.24108832 0.6182355 -0.19961672 -0.022572257 -0.1196016 0.25799283 0.01606461
-0.2052476 -0.17228064 0.8210458 0.37353396 -0.36030707 0.006548977 0.23206341 0.033797763
-0.38992798 -0.36393622 0.4420664 0.4141271 -0.695426 -0.35438672 -0.7627034 -0.26926208
0.031150116 0.3424596 0.029690433 0.0016287141 0.3412495 0.22137722 0.011319368 0.11007074
0.13798976 -0.29818705 -0.59927595 -0.048101984 -0.28435403 0.020756697 -0.43730015 -0.27227825
-0.077918515 0.13808168 -0.05757898 -0.37759727 0.30229193 0.022935601 -0.14509556 0.035102747
0.12577528 0.20161453 -0.43253744 0.30240542 0.0013657825 0.20748684 0.90366954 0.20251533
-0.30017814 -0.4390641 -0.65879196 -0.33810762 -0.5556191 -0.2217495 -0.5642281 0.17954606
-0.26964268 0.24774675 0.25685742 0.267494 -0.36014113 0.27064335 0.8251736 0.37628865
-0.31348428 0.22348472 0.3120959 0.30963546 -0.5977651 0.16379412 -0.33827606 -0.11741712
0.10304261 0.377463 0.03280103 0.025556402 -0.42545998 -0.060784362 -0.52827734 -0.32957911
00000000: b90d 103e 1636 79be 9ce9 2a3f 8637 703e
00000010: f42d 6d3e a234 9cbe 6b5e 66be ca70 cabd
00000020: 0acf 6b3e 7489 a1be e4f3 8dbd 6c95 6abe
00000030: 6664 283e b6d1 2c3e 1db8 593e 8ff8 06be
00000040: f67f c83e a101 45be 4ddc 013e 61f3 463e
00000050: 1a1e cb3c 7768 aa3e 42a3 9e3e 5dc6 5f3e
00000060: 1c07 8bbd 8da0 783e 6137 da3e 6c7e 89be
00000070: a1de 86bd d13a bfbd c0fa 9b3d 8eb2 8f3e
00000080: fc42 1abf 4c5e 8b3e ab23 a7bc f258 653e
00000090: 620e f8be 6829 9a3e ac09 583e ba18 d13e
000000a0: 1e0e ed3d 75a0 3e3e 7e2d fcbd 76e7 b1be
000000b0: 8214 03be ca37 8e3c 0023 e7bd bb73 e7be
000000c0: f0f6 a2be 2731 3ebc 5634 4dbe d321 313e
000000d0: 29de 54be ea0f c0be c939 26bf 515a 96be
000000e0: 9e10 083f ea0b 8a3e 80f6 913d 5f6e 733d
000000f0: d7d5 ea3e 9632 18bd c5e8 89bd de48 8dbe
00000100: 0d1b 783e 1b4a 40bd e509 9f3e 3c25 7abe
00000110: 4a08 eebe c17b a4be 6f0f d8be 5af1 993e
00000120: 3704 9c3d e54a bebd 1fdc 2f3c 8122 8a3e
00000130: e142 133e 51bd 61be fced 043f 431e 243e
00000140: be31 6bbe 0d34 91be e8a5 1ebe e623 a73e
00000150: 98eb a7be 38d7 f8be cfcd 39be 31b8 7bbd
00000160: 920e 9f3c 61af 72be 2972 28bf 5924 9fbe
00000170: 83de 1dbe 69e4 a43e e90e e0be 5b75 153e
00000180: f873 e5bd f795 66bd 3ec7 0a3e df65 833e
00000190: 0416 c93e 510e a1be 7800 1bbf b17f c5be
000001a0: ecac d83e e76e e83e 4e15 12be 7ad8 91bd
000001b0: 7898 98ba c9a0 babe d1f2 05bf ea97 ebbe
000001c0: 9877 c23e 8f2d 923e c559 ac3e 6d06 e23e
000001d0: b87b c6be 9b0c c83e cd7b 4e3d ec0a 88be
000001e0: f8c6 a33d b43f c7bb 7f5a 7f3e d025 23be
000001f0: 8867 a53e 1c75 41be e835 33bf f68b 4cbe
00000200: d922 e3bb ea6d c23e 19ad 883e 9e06 99bd
00000210: d7c2 d33e 4eef 99be 566a f7be 991f 75be
00000220: 0391 1cbf ba12 69bc f7de fdbd fed7 cd3b
00000230: 5678 433e 1b77 85be 623c e2be 762a ac3e
00000240: 826b 8dbe 3e89 913e c26e 633c edb6 50be
00000250: 1f70 24be 40e7 2ebd 4f0f de3e d9a0 393e
00000260: 2f24 2abe 7ada ab3e 343d 873e a553 393e
00000270: 1e6c 5d3e a235 fdbd 171c 10bd 5b55 f9bd
00000280: 9b0c 87bd fa1a cdbe cd8e f1be 76fe b5be
00000290: afd9 043e 38ba 82be 4eec a23e d7eb 82be
000002a0: f534 c13e dbdf 763e af44 1e3f 5368 4cbe
000002b0: 74e9 b8bc aff1 f4bd a317 843e ee99 833c
000002c0: 6d2c 52be 566a 30be 0f30 523f d83f bf3e
000002d0: 2b7a b8be cd98 d63b 08a2 6d3e 866f 0a3d
000002e0: a4a4 c7be d955 babe 8756 e23e 7808 d43e
000002f0: 7007 32bf 2d72 b5be 8840 43bf b8dc 89be
00000300: 872e ff3c dd56 af3e 5a39 f33c 947a d53a
00000310: 41b8 ae3e b6b0 623e df74 393c c56c e13d
00000320: 304d 0d3e f9ab 98be 266a 19bf 9606 45bd
00000330: da96 91be f309 aa3c cee5 dfbe 0e68 8bbe
00000340: be93 9fbd 4965 0d3e f0d7 6bbd 6e54 c1be
00000350: 02c6 9a3e 71e3 bb3c ee93 14be e6c7 0f3d
00000360: 3ccb 003e 0a74 4e3e 8c75 ddbe e2d4 9a3e
00000370: 0e04 b33a 6e77 543e e356 673f 2e60 4f3e
00000380: f3b0 99be 02cd e0be 97a6 28bf 711c adbe
00000390: 0e3d 0ebf 4d12 63be 4171 10bf ecda 373e
000003a0: 9b0e 8abe 53b1 7d3e d182 833e f9f4 883e
000003b0: 6b64 b8be c491 8a3e 943e 533f e8a8 c03e
000003c0: 0381 a0be 2ed9 643e 09cb 9f3e 8a88 9e3e
000003d0: 2207 19bf a5b9 273e 8532 adbe 6378 f0bd
000003e0: 0108 d33d d542 c13e 5f5a 063d a95b d13c
000003f0: e4d5 d9be 06f9 78bd 2f3d 07bf 98be a8be

layer1.bias f4 [128]
0.15369704 0.65672797 0.61425596 0.4381563 0.36969677 0.14425075 0.63007855 0.55029005
-0.1952783 -0.2373074 0.33173904 -0.389767 -0.33415025 -0.14979446 -0.23864144 -0.40095884
-0.4602618 -0.41312477 -0.37197217 -0.42253563 -0.36848384 -0.023604844 0.6627841 0.44194898
0.65128607 -0.38535315 -0.46350405 -0.13964196 -0.38756377 0.14926693 0.5633102 0.18586504
0.28881094 0.45648676 -0.18107073 0.03799395 0.685132 -0.2130291 0.5456306 -0.33794612
-0.122836456 -0.2619978 -0.25062436 0.60246754 0.073430486 0.4282247 0.32670572 0.049367644
-0.40508276 -0.119273715 0.61579007 -0.37560874 -0.32248953 0.42926866 0.68092316 -0.2643525
-0.09189546 -0.21408837 0.6985986 -0.21039908 -0.2698578 0.028477058 0.39193824 -0.40918258
-0.108183965 0.40803188 0.5482591 0.32903963 0.585162 -0.13610226 0.30525532 0.489064
-0.14225121 -0.39217877 0.45442206 0.5568393 0.6096183 -0.10893419 -0.27686393 0.39371032
0.4660092 -0.36050206 0.6133538 0.27126658 0.6657661 -0.49880996 -0.36714968 0.6050939
-0.34919134 0.34926775 -0.093523905 -0.17251778 0.6431622 0.6716266 -0.3086216 0.71450573
0.5090144 -0.3896704 -0.18275109 -0.42059624 0.57541335 0.5734264 0.6015422 -0.19358453
-0.40332383 0.3408827 0.0034756013 0.5460234 -0.5315074 0.35847276 -0.13216348 0.20104973
0.30085814 0.48981658 -0.21869779 -0.24367698 -0.26075432 0.7063372 0.41874185 -0.34880197
0.5101755 -0.44392744 0.24243887 0.5227797 0.345678 0.42794514 0.12572533 0.2528832
00000000: c262 1d3e 531f 283f e13f 1d3f 0656 e03e
00000010: e548 bd3e 78b6 133e d44c 213f cfdf 0c3f
00000020: 09f7 47be b600 73be b3d9 a93e 8a8f c7be
00000030: be15 abbe b863 19be 6c5e 74be 7a4a cdbe
00000040: 6fa7 ebbe 1785 d3be 2373 bebe 9756 d8be
00000050: eaa9 bcbe f25e c1bc 38ac 293f 2347 e23e
00000060: afba 263f 024d c5be 6750 edbe 4dfe 0ebe
00000070: c26e c6be 6ed9 183e 1935 103f 6853 3e3e
00000080: 07df 933e a2b8 e93e 9b6a 39be 8b9f 1b3d
00000090: d064 2f3f 4d24 5abe 72ae 0b3f 4607 adbe
000000a0: ae91 fbbd 9324 86be d651 80be 503b 1a3f
000000b0: b962 963d 4540 db3e f945 a73e ba35 4a3d
000000c0: 0267 cfbe c745 f4bd 6ba4 1d3f ca4f c0be
000000d0: 591d a5be 1ac9 db3e fb50 2e3f 3659 87be
000000e0: b033 bcbd fb39 5bbe 5cd7 323f db72 57be
000000f0: cd2a 8abe b848 e93c 21ac c83e 6180 d1be
00000100: 8e8f ddbd 8ee9 d03e b55a 0c3f e277 a83e
00000110: 2dcd 153f 645e 0bbe 6d4a 9c3e 9966 fa3e
00000120: 4daa 11be a8cb c8be 02aa e83e 058d 0e3f
00000130: f20f 1c3f e318 dfbd 1cc1 8dbe 6694 c93e
00000140: c298 ee3e ba93 b8be c104 1d3f 74e3 8a3e
00000150: a66f 2a3f 0564 ffbe 0bfb bbbe 6fe7 1a3f
00000160: 35c9 b2be 39d3 b23e 7689 bfbd 80a8 30be
00000170: 47a6 243f b9ef 2b3f a603 9ebe d9e9 363f
00000180: c54e 023f e182 c7be 1a23 3bbe 6458 d7be
00000190: 4a4e 133f 13cc 123f abfe 193f 063b 46be
000001a0: 7680 cebe 2d88 ae3e eac6 633b 31c8 0b3f
000001b0: de10 08bf be89 b73e dd55 07be fbdf 4d3e
000001c0: 140a 9a3e 3dc9 fa3e 50f2 5fbe 7586 79be
000001d0: 9781 85be 84d2 343f 5565 d63e 2c96 b2be
000001e0: dd9a 023f 754a e3be e541 783e e4d4 053f
000001f0: b5fc b03e a01b db3e 24be 003e e879 813e

layer2.weight f4 [128, 128]
0.008605909 -0.05199315 0.0022378904 -0.008686903 0.0484443 0.001289822 -0.024037385 0.04742145
-0.20970683 -0.25938866 0.123712614 0.28797704 0.25335065 0.053313773 0.119307555 0.13655452
0.100528345 0.11004674 0.047684647 -0.0628795 0.102366336 0.046441603 0.039669033 -0.06681253
-0.012527739 0.17898087 0.17619939 0.2284912 -0.05981015 0.13756874 -0.046972264 0.19422868
0.024991713 0.09671237 -0.21403787 0.12514107 -0.03396443 -0.15634422 -0.07234004 0.092282824
0.26340443 -0.039442435 0.10170404 -0.12328131 -0.112593256 -0.049199503 -0.032738175 0.15440907
0.13784596 0.19967784 0.0044707917 0.3378241 0.07991546 0.08812673 -0.027869053 0.060883872
0.073809035 0.0019500555 -0.11693776 -0.38171947 -0.44093114 0.3963761 0.06723785 0.21846013
0.076920055 -0.033977214 -0.095157966 0.116139725 -0.08379193 0.2856566 0.06776458 -0.025598817
0.03748959 -0.52301764 -0.098404646 0.04466282 -0.013278326 0.129075 -0.59016573 -0.0031558746
0.053573154 0.15242615 -0.07689609 -0.07699488 0.023618836 0.39222145 -0.3910986 0.05056534
-0.035448875 0.104676165 0.09181208 -0.16772056 -0.07384094 -0.0055397674 0.10669819 0.01980636
-0.046681967 -0.5594612 0.091968864 0.036998663 0.007891016 -0.0446154 -0.03466573 -0.594468
0.3277224 0.15368544 0.0049749073 -0.02557307 0.07668681 0.08743563 0.17176595 0.06039375
0.11779669 -0.13780291 -0.35760486 -0.29600194 0.01379616 0.011655375 -0.03196031 -0.037203636
-0.020330597 0.14091371 0.267789 0.065959364 0.14819373 0.0412691 0.047630884 0.021719303
0.057086688 0.21642067 0.2516294 0.17303759 0.04382427 0.025467658 0.23355013 0.16650142
-0.2960652 -0.0054677487 0.10988943 -0.18075694 -0.33575845 -0.50866646 -0.20164499 -0.11896015
-0.21717946 -0.1672211 -0.17548335 -0.24394707 -0.0749902 -0.2084429 0.18332022 0.19134778
0.0733425 -0.19605792 -0.111764565 -0.23603544 -0.17943504 0.10848888 0.18509178 0.014541185
0.13867794 0.25247282 -0.33185565 -0.009216454 0.17992051 -0.06515034 0.16544072 -0.13711728
-0.5700247 -0.037322193 -0.11233695 0.17375211 0.05572816 0.11108344 -0.008201057 -0.28007442
-0.15550071 -0.1719556 0.11093949 -0.4148379 -0.090048045 0.067892656 0.1587748 -0.63400114
-0.34689185 -0.16202623 0.17711665 -0.076672174 -0.1698405 -0.21028979 0.16859768 -0.37832943
0.055873856 0.04962422 0.2020642 -0.023143606 0.18942967 -0.49606192 0.20505829 0.16249809
-0.13157374 -0.35014012 0.08945257 0.093263455 0.1278541 -0.10005934 -0.22951102 0.050381813
0.22855595 -0.15878868 0.21485898 0.07314181 0.1776077 -0.6195877 -0.21118702 0.18174075
-0.13596584 -0.002899718 -0.11570311 -0.39244732 0.06741819 0.096763335 -0.23444572 0.22736184
0.22532137 -0.19567578 -0.35933128 -0.24797463 0.13469712 0.096869275 0.24508871 -0.2405347
-0.3802653 0.16247143 -0.09636061 0.09732172 -0.27881578 0.110860355 -0.43341187 0.35651323
0.08710416 0.17447935 -0.15046404 -0.12742087 -0.101803765 0.23734558 0.032063257 -0.2640346
0.20819418 -0.33141923 0.0031974271 0.038094684 0.044152793 0.2367856 0.09244116 0.03783886
00000000: ccff 0c3c c5f6 54bd 92a9 123b 8353 0ebc
00000010: 886d 463d 3f0f a93a 0dea c4bc ff3c 423d
00000020: 63bd 56be 97ce 84be 0a5d fd3d ba71 933e
00000030: 2db7 813e 8b5f 5a3d 8557 f43d f3d4 0b3e
00000040: cee1 cd3d 2f60 e13d fa50 433d f8c6 80bd
00000050: 71a5 d13d 8d39 3e3d ff7b 223d 02d5 88bd
00000060: 2541 4dbc c346 373e 9d6d 343e 99f9 693e
00000070: 7dfb 74bd d2de 0c3e fd65 40bd e2e3 463e
00000080: 6cbb cc3c 2311 c63d be2c 5bbe fb24 003e
00000090: 491e 0bbd b318 20be 0427 94bd c7fe bc3d
000000a0: f2dc 863e 648e 21bd 354a d03d e97a fcbd
000000b0: 4b97 e6bd 6b85 49bd 7718 06bd 691d 1e3e
000000c0: 7e27 0d3e 5978 4c3e b87f 923b 48f7 ac3e
000000d0: b7aa a33d c97b b43d a44d e4bc 5e61 793d
000000e0: 3129 973d 0199 ff3a 107d efbd bc70 c3be
000000f0: bac1 e1be cff1 ca3e ffb3 893d 03b4 5f3e
00000100: 4388 9d3d b12b 0bbd 2ee2 c2bd aada ed3d
00000110: 1a9b abbd 9541 923e 28c8 8a3d 9cb4 d1bc
00000120: af8e 193d 7ce4 05bf 6088 c9bd 5cf0 363d
00000130: 568d 59bc 3d2c 043e 1a15 17bf cad2 4ebb
00000140: 866f 5b3d 9a15 1c3e b27b 9dbd 7eaf 9dbd
00000150: 4a7c c13c 40d1 c83e 133e c8be 9a1d 4f3d
00000160: d732 11bd 7560 d63d f907 bc3d f0be 2bbe
00000170: eb39 97bd f086 b5bb 9584 da3d f340 a23c
00000180: 9735 3fbd d938 0fbf 2c5a bc3d e98b 173d
00000190: 5249 013c a3be 36bd a7fd 0dbd 0e2f 18bf
000001a0: 3bcb a73e b75f 1d3e 8c04 a33b 9d7e d1bc
000001b0: f90d 9d3d 7411 b33d 6ae3 2f3e 705f 773d
000001c0: 643f f13d 351c 0dbe fc17 b7be 918d 97be
000001d0: 4a09 623c 30f6 3e3c d0e8 02bd d762 18bd
000001e0: 5a8c a6bc af4b 103e a41b 893e b415 873d
000001f0: 19c0 173e ca09 293d 9a18 433d aeec b13c
00000200: bbd3 693d 619d 5d3e 92d5 803e c430 313e
00000210: 1481 333d 8da1 d03c c427 6f3e 597f 2a3e
00000220: dc95 97be cd2a b3bb b60d e13d 5918 39be
00000230: 88e8 abbe f737 02bf 067c 4ebe 61a1 f3bd
00000240: 4b64 5ebe 023c 2bbe e8b1 33be 43cd 79be
00000250: 7694 99bd 0e72 55be 4cb8 3b3e acf0 433e
00000260: 9834 963d 68c3 48be d2e4 e4bd 46b3 71be
00000270: d2bd 37be 6b2f de3d b388 3d3e 273e 6e3c
00000280: 9701 0e3e 1e44 813e fce8 a9be 9c00 17bc
00000290: 153d 383e 8b6d 85bd 4b69 293e 7968 0cbe
000002a0: 24ed 11bf 28df 18bd ea10 e6bd 13ec 313e
000002b0: 3643 643d b77f e33d ba5d 06bc ea65 8fbe
000002c0: 943b 1fbe 2115 30be 3e34 e33d a265 d4be
000002d0: 1c6b b8bd 4e0b 8b3d dc95 223e e64d 22bf
000002e0: cf9b b1be 34ea 25be 115e 353e 4d06 9dbd
000002f0: abea 2dbe 3556 57be dfa4 2c3e 65b4 c1be
00000300: fcdb 643d c442 4b3d ebe9 4e3e a997 bdbc
00000310: daf9 413e d4fb fdbe cdfa 513e e665 263e
00000320: 44bb 06be 9145 b3be e932 b73d e900 bf3d
00000330: 2fec 023e e9eb ccbd f004 6bbe 295d 4e3d
00000340: 920a 6a3e 8099 22be fe03 5c3e 60cb 953d
00000350: cbde 353e 4d9d 1ebf 6941 58be 3f1a 3a3e
00000360: a13a 0bbe 3209 3ebb c1f5 ecbd dbee c8be
00000370: 8c12 8a3d db2b c63d 8a12 70be 8bd1 683e
00000380: a5ba 663e 3b5f 48be 45fa b7be 10ed 7dbe
00000390: 0bee 093e 6663 c63d 89f8 7a3e ba4e 76be
000003a0: 22b2 c2be e95e 263e b658 c5bd 9c50 c73d
000003b0: f1c0 8ebe c10a e33d 29e8 ddbe e788 b63e
000003c0: aa63 b23d b7aa 323e 3f13 1abe 9e7a 02be
000003d0: 7e7e d0bd b80a 733e c354 033d 8b2f 87be
000003e0: db30 553e c8af a9be ed8b 513b 2c09 1c3d
000003f0: 8fd9 343d ed77 723e ca51 bd3d ecfc 1a3d

layer2.bias f4 [128]
-0.01951522 0.15179057 0.22938365 -0.017718561 0.12091752 -0.12560068 0.27941176 0.179326
0.22927308 0.05963749 0.25272483 0.18396771 0.14583705 0.17059569 -0.004526958 0.278572
-0.06727805 0.22149666 0.1712052 0.25744778 0.08111144 -0.025445681 0.008803612 0.12278479
-0.0015583987 -0.0640204 -0.040564034 -0.0074381116 0.019675652 0.11235257 0.22296044 0.20582151
0.13430215 0.26043615 0.21526468 0.17000487 0.17240658 0.106352404 -0.082759544 0.3597902
0.15536281 -0.005226564 0.16971147 0.0464554 -0.048334897 0.2469684 0.2216741 -0.008287818
0.060299005 0.3026392 0.10333598 0.031292293 -0.04015373 -0.06954422 0.013499022 0.14288038
0.18090351 0.05055391 -0.034349173 0.097775295 -0.0017993419 0.0488556 0.3044303 -0.014741872
-0.0022775703 0.12542391 -0.087614566 -0.043798402 0.22874837 0.2623874 0.0011405596 -0.08144396
0.19830698 0.16353706 -0.032135 -0.06318098 0.08666169 -0.038352076 -0.06042981 0.05064072
0.051649045 0.072074614 0.101447605 0.2794098 0.071752235 0.18733019 0.2448633 0.13367774
0.026572747 0.25158295 -0.15874392 0.20366979 0.23120332 0.06454547 -0.04624454 0.15331951
0.008398525 0.21938454 0.15200478 0.19370432 0.09346775 0.17839615 -0.0360926 0.010424184
-0.16589859 -0.008165078 -0.022589061 -0.055226244 -0.09648623 0.16118483 0.024606636 0.10644476
-0.16718498 0.16910145 0.026178587 -0.0090419 -0.09238783 -0.12917002 0.30798408 0.2865804
0.055542573 0.059878122 0.13424692 0.12159148 0.20080094 0.2683054 -0.18987633 -0.03828788
00000000: 62de 9fbc fd6e 1b3e 8ce3 6a3e 8426 91bc
00000010: 9ba3 f73d 779d 00be 0f0f 8f3e 3ca1 373e
00000020: 90c6 6a3e 7146 743d 2665 813e 0862 3c3e
00000030: 4f56 153e a3b0 2e3e e056 94bb fda0 8e3e
00000040: 13c9 89bd 05d0 623e 6a50 2f3e 32d0 833e
00000050: c11d a63d 7673 d0bc 063d 103c 9876 fb3d
00000060: 2f43 ccba 211d 83bd 7926 26bd 67bb f3bb
00000070: d52e a13c 1b19 e63d be4f 643e e0c2 523e
00000080: 8186 093e e357 853e 586e 5c3e c215 2e3e
00000090: 5a8b 303e 4acf d93d d67d a9bd 6c36 b83e
000000a0: 6e17 1f3e 9943 abbb d8c8 2d3e 0448 3e3d
000000b0: d0fa 45bd 49e5 7c3e 89fe 623e a1c9 07bc
000000c0: 17fc 763d 86f3 9a3e d0a1 d33d 592c 003d
000000d0: 3d78 24bd 336d 8ebd 012b 5d3c 3c4f 123e
000000e0: c53e 393e 9e11 4f3d b8b1 0cbd 6a3e c83d
000000f0: e5d7 ebba cf1c 483d 4ade 9b3e e587 71bc
00000100: 4a43 15bb 206f 003e 446f b3bd f465 33bd
00000110: 033d 6a3e a457 863e d47e 953a 17cc a6bd
00000120: fc10 4b3e 4276 273e fd9f 03bd 0865 81bd
00000130: af7b b13d 1117 1dbd 4085 77bd a56c 4f3d
00000140: f38d 533d db9b 933d c3c3 cf3d cd0e 8f3e
00000150: d6f2 923d 7cd3 3f3e 72bd 7a3e d1e2 083e
00000160: 17af d93c 7bcf 803e c48d 22be d08e 503e
00000170: 90c0 6c3e 6a30 843d ea6a 3dbd caff 1c3e
00000180: f899 093c 57a6 603e 24a7 1b3e 6d5a 463e
00000190: 056c bf3d 7bad 363e d6d5 13bd 32ca 2a3c
000001a0: 52e1 29be d2c6 05bc b20c b9bc ea34 62bd
000001b0: 939a c5bd a30d 253e db93 c93c b6ff d93d
000001c0: 8a32 2bbe ee28 2d3e 7a74 d63c 7a24 14bc
000001d0: d535 bdbd 2545 04be 17b0 9d3e abba 923e
000001e0: 9c80 633d c342 753d 0678 093e f404 f93d
000001f0: c39e 4d3e 535f 893e f16e 42be c1d3 1cbd

layer3.weight f4 [2, 128]
0.0022636433 0.371349 0.27245593 -0.09117115 0.16029166 -0.4756281 0.3723069 0.35786065
0.1942734 -0.019009678 0.2940053 0.36339962 0.30618802 0.36493522 -0.031925015 0.3078511
-0.065948576 0.3929133 0.25564215 0.30381817 0.3209596 -0.016243415 0.23022307 0.3559094
0.007935502 -0.32776383 -0.011983905 -0.0037005977 0.0006381398 0.3300196 0.28384408 0.25652972
0.35607392 0.3592405 0.3812052 0.21363477 0.23914252 0.24948826 -0.04989799 0.29033333
0.29527044 -0.12489064 0.3352528 0.065360546 -0.043216486 0.2694611 0.30634582 -0.1329383
-0.26517627 0.37276208 0.3066819 -0.069144465 0.047064696 -0.066204466 0.030315468 0.36853233
0.33616817 -0.15288022 -0.7106621 0.28072962 0.02962855 -0.014934362 0.2558149 -0.012549886
0.00017917813 0.25012037 -0.20248263 -0.37290445 0.29638064 0.27136484 -0.1297113 -0.3181117
0.24179189 0.29721668 -0.14571814 0.042067252 0.48494378 -0.005942113 -0.32173815 -0.005322218
0.15725248 -0.072447486 0.3566309 0.20853622 0.28735372 0.34440583 0.33637127 0.3216331
-0.10803548 0.15116102 -0.28049994 0.20978503 0.2545871 0.3208056 -0.28982946 0.28296387
-0.33118364 0.06847659 0.25965995 0.3341009 0.22648399 0.02713303 0.20891179 -0.032971997
-0.31862408 -0.15461595 -0.20988484 -0.029037634 -0.07240568 0.2428554 -0.03723571 0.28642276
-0.42544252 0.23224255 0.2969836 -0.23364757 -0.37436002 -0.38818035 0.29389903 0.31016245
0.28316796 -0.081277765 0.35856628 0.33636335 0.3654045 0.25525504 -0.7654397 -0.052244246
-0.3978502 0.30707306 0.3150336 -0.25111803 0.26859152 -0.9378975 0.2708451 0.213433
0.32245368 0.0042280215 0.19959223 0.2747609 0.35852414 0.38109356 -0.06780792 0.3568094
-0.031436626 0.30900347 0.30557686 0.18136172 0.25501877 -0.128024 -0.45508525 0.3255233
-0.020622626 -0.017405435 -0.04208404 -0.06083987 -0.029084766 0.31398255 0.3244723 0.31575346
0.31071517 0.24891393 0.37230024 0.33250278 0.31961966 0.31412783 -0.27798158 0.344902
0.35163206 -0.076968975 0.28932032 -0.037429452 -0.046801474 0.30301905 0.3891529 0.11002237
-0.15909655 0.35838088 0.3095816 -0.13353646 -0.022972623 0.017789982 0.035470657 0.3815125
0.3666832 -0.06219524 -0.67072284 0.32994315 -0.2315848 -0.021224206 0.26150155 -0.057836145
-0.045443952 -0.1039495 -0.17864232 -0.47494107 0.32202998 0.28029677 -0.14208898 -0.6420195
0.2828795 0.25728437 -0.17690793 0.039691392 -0.01832474 0.024579046 0.19072576 -0.03447777
0.034332678 -0.021121966 0.2493418 0.30023205 0.19564834 0.3551 0.3649837 0.33244526
0.0009253832 0.30414447 -0.30122244 0.27756706 0.3244668 0.33179763 0.009174184 0.3277163
-0.18324935 0.24262302 0.23712586 0.28745672 0.27822393 0.3339715 -0.3026998 0.031858623
-0.34685463 -0.008100015 -0.24730611 0.00471125 -0.39021823 0.29901853 -0.023399983 0.31922475
-0.23841277 0.30441055 0.33393225 -0.3835042 -0.078200944 -0.17339718 0.25694603 0.3220729
0.35776055 -0.030444669 0.28180286 0.18582802 0.38451138 0.19694807 -0.19142199 -0.018583378
00000000: a259 143b 7521 be3e 587f 8b3e f1b7 babd
00000010: 7f23 243e 8785 f3be 039f be3e 8339 b73e
00000020: 9bef 463e 2fba 9bbc dd87 963e 840f ba3e
00000030: adc4 9c3e cad8 ba3e cec3 02bd a99e 9d3e
00000040: 0c10 87bd ef2b c93e 87e3 823e 0e8e 9b3e
00000050: d154 a43e e910 85bc 99bf 6b3e c239 b63e
00000060: e803 023c a9d0 a7be 2458 44bc ba85 72bb
00000070: d648 273a 54f8 a83e 0354 913e dd57 833e
00000080: 524f b63e 5fee b73e 542d c33e 13c3 5a3e
00000090: c7e1 743e da79 7f3e d661 4cbd 92a6 943e
000000a0: b02d 973e aac6 ffbd 41a6 ab3e c0db 853d
000000b0: c503 31bd cef6 893e 5cd9 9c3e fa20 08be
000000c0: 2fc5 87be acda be3e 6905 9d3e 9d9b 8dbd
000000d0: e9c6 403d 3596 87bd 2558 f83c 45b0 bc3e
000000e0: 3c1e ac3e a28c 1cbe f4ed 35bf cbbb 8f3e
000000f0: 93b7 f23c 41af 74bc 2cfa 823e 099e 4dbc
00000100: c3e1 3b39 c70f 803e 9b57 4fbe 55ed bebe
00000110: 34bf 973e 55f0 8a3e 0ad3 04be 89df a2be
00000120: 4b98 773e c92c 983e 2337 15be b64e 2c3d
00000130: 8d4a f83e 0fb6 c2bb ddba a4be 0066 aebb
00000140: cb06 213e 595f 94bd 5398 b63e 858a 553e
00000150: 0720 933e f655 b03e db38 ac3e 18ad a43e
00000160: b541 ddbd f4c9 1a3e b09d 8fbe e3d1 563e
00000170: 3e59 823e a240 a43e 8764 94be a4e0 903e
00000180: e790 a9be 743d 8c3d 26f2 843e 460f ab3e
00000190: 6beb 673e 1746 de3c f9ec 553e a50d 07bd
000001a0: b222 a3be a553 1ebe 0dec 56be 55e0 edbc
000001b0: 6e49 94bd 16af 783e 7984 18bd 01a6 923e
000001c0: 9ad3 d9be fed0 6d3e 3c0e 983e 4f41 6fbe
000001d0: 1eac bfbe 93bf c6be ef79 963e 9dcd 9e3e
000001e0: 64fb 903e f574 a6bd 0096 b73e d137 ac3e
000001f0: 4c16 bb3e cab0 823e dbf3 43bf 10fe 55bd
00000200: 05b3 cbbe ae38 9d3e 164c a13e 8b92 80be
00000210: d484 893e 0d1a 70bf 35ac 8a3e 2e8e 5a3e
00000220: a618 a53e 378b 8a3b e861 4c3e 76ad 8c3e
00000230: 7a90 b73e b21e c33e e1de 8abd b9af b63e
00000240: b1c3 00bd b435 9e3e 9274 9c3e e3b6 393e
00000250: d291 823e b918 03be ef00 e9be fdaa a63e
00000260: c8f0 a8bc d895 8ebc 5060 2cbd 3a33 79bd
00000270: 2d43 eebc 52c2 a03e 3c21 a63e 70aa a13e
00000280: 0f16 9f3e 4be3 7e3e 239e be3e ce3d aa3e
00000290: 30a5 a33e 5dd5 a03e 9a53 8ebe ff96 b03e
000002a0: 1e09 b43e e9a1 9dbd cb21 943e a04f 19bd
000002b0: e7b2 3fbd 5025 9b3e 0d3f c73e 6953 e13d
000002c0: 35ea 22be b37d b73e 7b81 9e3e c8bd 08be
000002d0: 1531 bcbc 4cbc 913c ae49 113d 9b55 c33e
000002e0: e6bd bb3e 70c0 7ebd 7eb4 2bbf 4fee a83e
000002f0: 9124 6dbe 63de adbc 88e3 853e 98e5 6cbd
00000300: 7023 3abd 7ae3 d4bd 03ee 36be 7a2b f3be
00000310: 1de1 a43e 0f83 8f3e c67f 11be 645b 24bf
00000320: 95d5 903e c7ba 833e 5a27 35be 7193 223d
00000330: c41d 96bc ff59 c93c 9d4d 433e 9038 0dbd
00000340: 6ca0 0c3d f907 adbc 7553 7f3e 04b8 993e
00000350: 0a58 483e abcf b53e 25df ba3e 4436 aa3e
00000360: 6a95 723a d3b8 9b3e d439 9abe 451d 8e3e
00000370: 8320 a63e 61e1 a93e 514f 163c 6eca a73e
00000380: b8a5 3bbe 2b72 783e 1fd1 723e 872d 933e
00000390: 5e73 8e3e 50fe aa3e 78fb 9abe 307e 023d
000003a0: ee96 b1be edb5 04bc d03d 7dbe d460 9a3b
000003b0: afca c7be f518 993e 52b1 bfbc 6d71 a33e
000003c0: 7a22 74be b3db 9b3e 2bf9 aa3e aa5a c4be
000003d0: d127 a0bd 088f 31be 6e8e 833e bde6 a43e
000003e0: 642c b73e 1967 f9bc 7748 903e b349 3e3e
000003f0: adde c43e c1ac 493e 2004 44be 2b3c 98bc

layer3.bias f4 [2]
-0.0017179727 -0.0131620215
00000000: 992d e1ba 85a5 57bc
