lunar_target_net.pth (torch, 74975 bytes, 6 tensors)

layer1.weight f4 [128, 8]
00000000: ef49 02bf 0a41 c2bd b81a fdbe e248 07bf
00000010: 2f23 833e fb09 49be 3a5f 94bd 0057 4dbd
00000020: 13f8 cd3e d634 a5be bdfc 593e 1dd5 cdbe
00000030: 447d 97bd eb0d 2b3e 0f6b 7a3e 803c 6d3d
00000040: 88c6 563e bbf3 be3d 6314 a83e 2fcb 88bc
00000050: 7119 93bd 66b6 3f3e ecc5 d0bd 8a78 a0be
00000060: d9a6 8dbe b493 db3e 3a1c 90be 7945 99bd
00000070: d833 e3be b8f6 493e 287c 1d3d 345b ca3d
00000080: ee55 fe3d 0f13 823e fae5 09bf 22a3 1dbf
00000090: 9aff 0fbf ae95 b83b a5af 5b3e 5609 753d
000000a0: 4ba3 d6bb 9810 6b3e 4e4c d2be b47a 243d
000000b0: f7a3 8bbd ff3a 9cbe 7b1a 21bf 0f71 953c
000000c0: 8d74 91be 5679 ab3e ccd3 30bd 89ae 62be
000000d0: 3a56 093f d9c5 503d 6bed b0be 49c1 c8be
000000e0: ec58 69be 34ea 04bc 3ba8 f5be 2239 4b3f
000000f0: d2af 24be fe5a 85be 81a2 02bf 1b7e 6fbe
00000100: cdc9 3dbe d118 d4bc 6cb5 f63d dbe9 0bbf
00000110: 65d3 adbd 3893 423e 4045 483e a025 013e
00000120: fbab 913e f95d 5dbd d508 0f3f 258b 2c3d
00000130: 2330 9fbe 96ff 393e 0cb8 34bd 67c2 ecbe
00000140: ab01 19bf eb9a b5bd fbd2 a0be d6d0 1c3e
00000150: 084e ee3e 4179 053e 6eb0 5b3e 9ae4 55be
00000160: 44af 1ebe 2f32 3e3c 5a93 2c3d 34b8 fdbb
00000170: 6370 4c3e cca2 f53e 0706 10be ab1b 9cbe
00000180: 3b50 6cbe baa0 8ebd 5431 8bbd bced 35be
00000190: f9a0 43bc f7f7 893e 92df 223e 7b75 f3be
000001a0: 2490 123d 7e12 f63d 8d6e 923e 4fa8 7ebf
000001b0: 8589 5fbe add2 b9be a9db c2bd c2fc 9cbc
000001c0: 914a dbbe 8cfe 873e 88de 2cbe 5066 59bd
000001d0: c7bf 53be 4e3a 8e3e aaf1 333e f560 543e
000001e0: 4132 a3bd d2c5 b8bd c914 bc3f 0e84 d03e
000001f0: ac05 463d 38ef 233d 745b 4d3e 7c49 62be
00000200: ee66 a7bd 635b b53e 75ff e6bd 39e3 85be
00000210: 5439 073c 8756 5e3e c5aa 793e 1e75 303e
00000220: df6b 9abe 84c6 27be a075 7cbd a628 10be
00000230: 4c6a 353e c3bb b63e 3c57 01bd 2d8d c6be
00000240: cdee 96be 82fe f1bd 79b7 6dbe ce45 9fbe
00000250: 7c8d 443f 90d3 063f a334 913d a232 1fbe
00000260: 8f90 113e 6db6 993e 8484 80be 426c 373d
00000270: 4e9e c1bc 23bf 12bf e846 f3be bddb 5abe
00000280: 94be 35be a722 a73e 5250 ad3e 78dd c8be
00000290: 5360 e0bb a046 d83d 0f72 b53d f44a 283e
000002a0: c637 e03e a4f9 97bc 1d65 ec3c 7c37 263f
000002b0: 2eb6 e0be 57cd b0be d70d 123b 4122 17bd
000002c0: d6de 6f3d 91b2 b7bd 0012 623e b0d3 883f
000002d0: 57d5 dcbe 6512 263e 6306 0d3e 6cc1 323d
000002e0: aef5 7fbe b1df b93e 6f69 96be 7afb 41be
000002f0: 92c8 323f 7653 983d 7f30 e0be 90b4 80bd
00000300: 4986 a93d 4a09 22be cce5 8c3e b94a 93be
00000310: c504 aebe 1c0f 21bf 8545 9dbe 2b5e 5e3e
00000320: f56b 08bd 9f44 84be 8aac 1c3e f82a 0fbf
00000330: ea69 4bbd 82eb 153e 9122 673e 8a08 273d
00000340: 431f a3be 9133 683e 59bf 6dbd b40f c1be
00000350: 5554 febd 288a 31bd 3f0d cebe 18de bcbe
00000360: 57ef db3d 75c5 c83d f8df c9be 03d5 35bf
00000370: 84c1 18be 2015 1abe 161b b33d 9c95 9e3c
00000380: f88a f43c 69d2 6c3e 5684 9e3e 228a 47bf
00000390: 3592 8d3f fd22 a73e 87c7 af3c 1847 9e3d
000003a0: f723 ba3d fb45 413e 280c a83e 6b40 e5be
000003b0: 6c66 253e e6fd e5bc d50e c03e 567f 5a3d
000003c0: 8e4b 04be 2fd0 cc3e dd79 203c 580f 56bf
000003d0: 0ffc b83e aa2c 18bf ef32 a0bd 74b5 8e3e
000003e0: 3b07 87be 5e84 ea3e 2df3 83bd 26c6 1fbf
000003f0: b6a2 fb3b ed24 fbbe 07f3 db3d 4c3e 453d
-0.50894064 -0.094850615 -0.49434447 -0.52845585 0.2561278 -0.19632713 -0.072447255 -0.050131798
0.40228328 -0.32266873 0.21287818 -0.40201655 -0.073969394 0.16704528 0.24454902 0.057919025
0.20974171 0.09323832 0.32828054 -0.016698448 -0.07182587 0.18721923 -0.101940006 -0.31341964
-0.27666357 0.42886126 -0.28146535 -0.07483954 -0.4437549 0.19723022 0.038448483 0.09880677
0.124187335 0.25405166 -0.5386654 -0.61577046 -0.5624939 0.0056330776 0.21453722 0.059823357
-0.0065502278 0.22955549 -0.4107384 0.04015608 -0.06818383 -0.3051376 -0.6293103 0.018242387
-0.28409234 0.3349101 -0.043170735 -0.22136892 0.53647196 0.050969932 -0.34556136 -0.39209965
-0.22787827 -0.008112479 -0.47979912 0.7938405 -0.16082695 -0.26045984 -0.5102921 -0.23387949
-0.18534012 -0.02589074 0.12046322 -0.5465371 -0.08487586 0.19001472 0.19557667 0.12612009
0.28451523 -0.054044697 0.5587285 0.042124886 -0.31091413 0.18163905 -0.044120833 -0.46242067
-0.5976817 -0.08867439 -0.31410965 0.1531404 0.46543908 0.13034536 0.21454021 -0.20887986
-0.15496546 0.011608644 0.042132713 -0.007742906 0.19964747 0.47975767 -0.14064799 -0.3048986
-0.2307748 -0.0696425 -0.06796518 -0.1776647 -0.011940234 0.26946995 0.15905598 -0.47550568
0.035781994 0.12015246 0.2859997 -0.9947557 -0.21829803 -0.36293545 -0.09514553 -0.019163493
-0.42830327 0.2656139 -0.16881764 -0.05307609 -0.20678626 0.27778858 0.17572656 0.20740111
-0.079685695 -0.09022106 1.4693843 0.4072575 0.048345253 0.04002306 0.20054418 -0.22098345
-0.08173929 0.35421285 -0.11279193 -0.2614992 0.008253414 0.21712695 0.2438155 0.17232177
-0.30160424 -0.16384321 -0.061635613 -0.14078006 0.1771633 0.35690126 -0.031577334 -0.38779584
-0.29479066 -0.11816122 -0.2321452 -0.31107944 0.7677839 0.5266657 0.07090118 -0.15546659
0.14215301 0.30021992 -0.251011 0.044780977 -0.023635056 -0.573229 -0.47515035 -0.21372886
-0.17748481 0.32643625 0.33850342 -0.39231467 -0.0068474202 0.10560346 0.088596456 0.16434842
0.43792552 -0.018551655 0.028856808 0.6492841 -0.43888992 -0.34531662 0.0022286081 -0.0368979
0.058562122 -0.08969606 0.22077179 1.0689602 -0.43131515 0.16217954 0.13771968 0.043641493
-0.24996063 0.36303475 -0.29377314 -0.18943587 0.69837296 0.07437794 -0.43787 -0.062844396
0.08277566 -0.15823856 0.2751907 -0.28767946 -0.33988014 -0.6291368 -0.30717102 0.2171561
-0.03330608 -0.25833604 0.15300193 -0.5592494 -0.049661554 0.1464062 0.2257178 0.040779628
-0.31859788 0.22675921 -0.05804381 -0.37707293 -0.12418429 -0.043344647 -0.4024448 -0.36888194
0.1073901 0.09803287 -0.39428687 -0.71028155 -0.1491757 -0.15047121 0.087454006 0.019358449
0.029851422 0.2312714 0.3096034 -0.7794515 1.1060244 0.3264388 0.021457447 0.07728404
0.09088891 0.18874352 0.32821774 -0.4477571 0.16152352 -0.02807517 0.37511316 0.053344093
-0.12919447 0.4000258 0.0097946795 -0.8361716 0.36129805 -0.5944315 -0.07822215 0.27872813
-0.26372704 0.45804113 -0.064428665 -0.62411726 0.0076793088 -0.4905161 0.10739713 0.048155114

layer1.bias f4 [128]
00000000: 6fdd 6abd 7ab6 383c d58a 0c3e 3cf5 613e
00000010: 263a a43c f71b f73d c0d2 02be 65e8 2d3e
00000020: dd5c 6f3e 3955 533e 8bac 123d 3a49 dabe
00000030: 5b95 b0be 70ca b03e b875 653e cffb 363c
00000040: 7526 2c3e 9a86 b0be 6a84 3abe 3088 00bc
00000050: 758c 423e 83ab 883e afe2 a33e b096 473e
00000060: 6cb3 0cbe c2e2 4d3e 46f2 eb3b ae67 9d3d
00000070: 1b47 b93e a616 b53e d8b8 27be c527 86bd
00000080: 82ac 3d3e 5b15 f33d e02a 6e3e a805 ca3e
00000090: 001a f5bd f645 433e b80e 91be 037f 3d3e
000000a0: d69f 5f3c 0beb 993e b72f 3a3e a700 733e
000000b0: e041 c63e a823 6dbd b614 b23e 794f 943e
000000c0: 38ca b33e 45cd 323e 0609 1c3e 786f a53d
000000d0: 2bac 01bd 1031 983e 83f4 88bd 9fd0 833e
000000e0: ed62 753d 14d3 3cbe bbbf 623e 819f ab3e
000000f0: df31 0e3e 3e81 7cbe 1c93 373e 677c a23e
00000100: d728 033e 1021 2c3e 2c35 7dbe 852a e13d
00000110: e876 8fbc 6662 623e 6d23 a4bd 4479 c53e
00000120: 6223 fdb9 ba4f d23d bf89 3ebd 1405 ebbc
00000130: 8ccf 103e 2363 ff3d 454e d23e 0991 203e
00000140: 407c 0b3e 4aaf 3a3e ab55 c13a 7cb5 633e
00000150: 26fa b6be 35f2 7c3d 28f6 123d cb29 9ebb
00000160: 1b6e 9a3e 1471 8b3e 349f bfbe 1c1f 9c3e
00000170: 9f2b f33d a6fd 86bd 2825 b93e aaa6 1cbd
00000180: b5fd b93d 3cd8 8ebe d851 babe ebb8 ae3e
00000190: 1376 983e ecec a83e 9cf1 b3be bb7c a8bb
000001a0: e948 bc3d 1d20 8e3e 8ac5 033e f00a 353d
000001b0: 606b 2e3e fd5c 1dbe 196e 5d3e cd8d 9f3e
000001c0: b5f8 9c3e 21cb 8d3e 41aa 013e 01df 0a3e
000001d0: a7c2 c03e 37ff 0b3d 40fa 4b3e ef47 27be
000001e0: 3c53 d73e 7b64 a7be d15f 2dbb bb5c ad3e
000001f0: cc52 a93e 4c25 e0bd 118f 46be e83c af3c
-0.05734008 0.011273975 0.13724835 0.22066206 0.020047259 0.12065881 -0.12775707 0.16983183
0.23375268 0.20637979 0.03580908 -0.42633992 -0.3448895 0.34529448 0.22408187 0.011168434
0.16811545 -0.34477693 -0.18214574 -0.00784497 0.18998893 0.26693353 0.32008883 0.19491076
-0.13740319 0.20106032 0.007200512 0.07685791 0.36187062 0.35368842 -0.16379106 -0.06550554
0.18522838 0.118693076 0.23258543 0.3945744 -0.1196785 0.19069657 -0.28331542 0.18505482
0.013648948 0.30062136 0.18182264 0.23730718 0.38722134 -0.057895333 0.34781426 0.28966883
0.35115218 0.17461117 0.15237817 0.080779016 -0.031658333 0.29724932 -0.06687262 0.25745103
0.059908796 -0.18439895 0.22143452 0.3352013 0.13886212 -0.24658677 0.17927212 0.31735536
0.12808548 0.16809487 -0.24727315 0.10994438 -0.017512754 0.22107849 -0.080145694 0.3856908
-0.00048282283 0.10269113 -0.046518084 -0.028688945 0.14141673 0.12470081 0.4107534 0.15680327
0.13621616 0.1823093 0.0014750262 0.222372 -0.35737723 0.061754424 0.035879284 -0.0048267595
0.3016213 0.2723471 -0.3742615 0.30492485 0.118735544 -0.06591348 0.3616116 -0.03824488
0.09081594 -0.2789935 -0.36390567 0.34125456 0.29777583 0.32993257 -0.3514527 -0.005141822
0.09193594 0.27758875 0.12868324 0.044199884 0.17033148 -0.15367503 0.2162403 0.31162873
0.30658498 0.27694038 0.12662603 0.13561632 0.37648508 0.03417894 0.19919682 -0.16336034
0.4205569 -0.32693848 -0.0026454816 0.3385981 0.33070982 -0.10944614 -0.19390513 0.021391347

layer2.weight f4 [128, 128]
00000000: ee6c b1be 7282 aebd bed4 33be 2468 b83d
00000010: 3b7e 033f c5ff 8abb 1468 063e 832e 90be
00000020: 756b 9a3e 8f2a c0be 6f83 dabe 009e 88be
00000030: 9b09 abbe dd75 373e b4e6 5c3d 4726 8b3f
00000040: ebe5 653d 1c10 a6bd 368a dbbe 37d9 d4bc
00000050: c2f3 723e 004d 7fbe 13d2 5bbe 8748 433d
00000060: 1e04 23be 6ceb da3e 7207 8e3e e3da 763e
00000070: 0b12 423d 7224 c53d 82c4 a23e c7c2 863e
00000080: 064e d1be da69 a03e 72e7 a73e 7016 dabd
00000090: 125b 723e b0db fcbe ced3 10be d988 623e
000000a0: 7600 e3be c97f b5bd 1b04 f43d 289a d93e
000000b0: aa37 c43b c6d8 dabe 1773 6cbd 6487 8e3e
000000c0: 2cee c3be 276e c43d 03e7 3cbe 6a2b 6a3e
000000d0: ef43 c43c 18e6 5fbe 61d1 6d3e 89b8 b4be
000000e0: 6ef5 71be 7e9f a4be 4c00 063e 8db9 983c
000000f0: 5920 bfbe 4f80 7ebe 5755 48be ced1 93bd
00000100: 6a64 643e 3433 d3be ba72 8f3c 7fa8 c43d
00000110: 7b2a 5c3f 565a 70bd 5262 99be 461c 98be
00000120: ead1 7b3e 8b5f afbe f57b e2be 1bd3 9c3d
00000130: 7f08 9ebd 98f3 333e 97e8 fe3d f562 d13e
00000140: be5d af3e fb86 3abd 5958 7d3f 5f26 f23d
00000150: a644 6abf d31c 3d3e ca60 c33e 0af4 d63e
00000160: ac4b 2bbe e109 aabd 49e9 eb3d d526 0fbd
00000170: 5949 1b3e 0bb3 96be 36e3 6e3e b67b b73e
00000180: c244 573e 9dcc 2fbe b4ef 73be a291 ee3d
00000190: 4e03 033e 6727 abbe 581b 4dbd cb8c f3be
000001a0: b5d2 debd 0d9e 8b3e 0b82 4ebe 865d 963e
000001b0: c405 e93e efc6 a2bd 469b ae3e 9b3f 8ebe
000001c0: e68e 313d e44e 47be b8a1 d9be 8385 f8bd
000001d0: 907c 823e d060 503e d649 8dbe df45 87be
000001e0: e4af 25be f121 0cbe e54e 173f 3594 243e
000001f0: 6abb 413e 4893 3bbe 40a6 8c3e 4d9a 893e
00000200: e66f debb 906b 013b a890 63bd 9d32 c4bc
00000210: fff7 85bc a02d 60bd a8d0 43bd fa20 4d3c
00000220: a2b0 42bd f8a8 013b 221b f63b 72ad c5b7
00000230: afaa 383c 77db a2bc 4a5f 6e3c 2daa 05bd
00000240: 9b43 413d 8059 84bd ed50 27bb 4181 4a3d
00000250: f267 ebbc b232 aabc fff8 44bd 3292 74bd
00000260: 98ad 4fbd bdb8 5b3d 8ad9 343d 9b7c 66bd
00000270: a402 2cbd 10d2 4c3c 4a1f 373d 8a79 4ebc
00000280: 3aa7 fd3c 1105 293d 753d 243d 172d 3bbd
00000290: 010c 0abd 473b 863d 8ef9 823d 0e64 a43c
000002a0: 86ca aebb 524a 2ebd 18b0 093d c18b 133d
000002b0: 03af 67bd 6a21 7c3d da98 c83c 8ecd d9bc
000002c0: 79b0 aabb 7605 33bd 367c d1bc 0bd0 f1bc
000002d0: 2a5a 2ebd 7e4d 06bd f10b feba a2ed f4bb
000002e0: b64f 84bd f1ef 65bc 3bb9 1b3d 1ea0 603d
000002f0: e312 f4bc ae6b 54bd b2f9 743c 47b6 8e3c
00000300: 1b47 62bc 5e1a 14bd 5aeb 573d 629d 54bd
00000310: 0768 843d d278 3fbb 012b 80bb 5fd2 30bd
00000320: ca00 0fbd 472f 173d 62c9 75bc bafe 4ebb
00000330: a49c 57bd 7bbb f0bc 47c1 db3c 801a a6bc
00000340: cb08 28bd 58c8 833d 9db4 9dbb 301a 7b3c
00000350: 9491 42bc d21c 2bbc 7210 f23c ea5a efbc
00000360: 4e8b 7ebd 8b0d c0bc 8f6b 5e3d 8633 5ebd
00000370: 71c7 463d d1f0 07bd e284 46bd fba3 78bb
00000380: 4a02 efbc 2c73 d93a 1280 403d af48 7ebd
00000390: 428e 673c 2714 fb3a c41a 633d 9df6 03bd
000003a0: 825a bb3c 2a2d 6c3c ad27 68bd 9336 3abd
000003b0: 847f 013d a3b6 f23c 92cd f0bc d394 733c
000003c0: a217 6cbd 01be 46bd e73d b9bc 4beb 5e3d
000003d0: 6c62 d6bc 3a23 703c 0e02 dd3c c694 54bc
000003e0: d7be 343d 4f9e 7e3d 290f a23c 6f8b 093d
000003f0: d867 8bba ce7f 35bd 76e1 a0bc 326c 573d
-0.3465342 -0.08520974 -0.17561623 0.09004238 0.5136449 -0.004241916 0.1312564 -0.28160486
0.30160108 -0.3753247 -0.426784 -0.26683044 -0.33405766 0.17916055 0.053930953 1.0871056
0.05612747 -0.08108541 -0.42878884 -0.025982482 0.23725799 -0.24931717 -0.21466856 0.04767659
-0.1591954 0.42757738 0.27740055 0.24106936 0.04738049 0.09626092 0.3179055 0.26320478
-0.4087984 0.31330758 0.32793766 -0.10648811 0.23667553 -0.49386358 -0.14143297 0.22122516
-0.4433629 -0.08862264 0.119148456 0.42500424 0.005988081 -0.4274351 -0.057726946 0.2783767
-0.38267648 0.095913224 -0.18447499 0.22868124 0.023958175 -0.21865118 0.23224403 -0.3529704
-0.2362878 -0.32152933 0.13086051 0.018643165 -0.37329367 -0.24853633 -0.19563805 -0.072177514
0.2230393 -0.41250002 0.01751076 0.096024506 0.8600232 -0.0586799 -0.29957825 -0.2970907
0.24591795 -0.3425258 -0.44235197 0.07657453 -0.07716464 0.17573392 0.12446707 0.4089581
0.34251207 -0.045538884 0.9896293 0.11823725 -0.91511 0.18468027 0.38159782 0.41983062
-0.16728085 -0.083026655 0.11519105 -0.034949142 0.15164699 -0.29433474 0.23328862 0.3583657
0.21022323 -0.17167898 -0.23821908 0.11648871 0.1279423 -0.334285 -0.050074905 -0.47568354
-0.10880033 0.2726902 -0.20166795 0.29368228 0.4551221 -0.079481 0.3410284 -0.27782902
0.04334917 -0.19463688 -0.42506194 -0.1213484 0.2548566 0.20349431 -0.27595395 -0.26420495
-0.16180378 -0.13684823 0.5910476 0.16072161 0.18919149 -0.18317902 0.2747059 0.26875535
-0.0067882417 0.001974795 -0.055557877 -0.023949916 -0.016353605 -0.05473101 -0.047806412 0.012520069
-0.04753173 0.001978455 0.0075105587 -2.3564997e-05 0.011271163 -0.01988004 0.014549086 -0.032632995
0.047183614 -0.06462383 -0.0025530413 0.049439672 -0.028736088 -0.020776127 -0.048089024 -0.059709735
-0.05070266 0.053642977 0.044152774 -0.056271177 -0.041994706 0.012501255 0.044707574 -0.012602219
0.030963529 0.041264597 0.040097672 -0.045697298 -0.033702854 0.06554275 0.06395255 0.020067241
-0.0053342013 -0.042551346 0.0336152 0.03602195 -0.05656339 0.061555304 0.024486948 -0.026587274
-0.0052090255 -0.04370638 -0.025571924 -0.029518148 -0.042566456 -0.032788746 -0.0019382221 -0.007474617
-0.06460516 -0.014034257 0.038018446 0.0548402 -0.029794162 -0.051860504 0.01495211 0.017420901
-0.013810898 -0.03615796 0.052714683 -0.051907904 0.06465154 -0.0029216302 -0.0039113765 -0.043169376
-0.034912862 0.03691032 -0.015001627 -0.0031584934 -0.05263962 -0.029386273 0.02682556 -0.020276308
-0.04102401 0.06434697 -0.0048127905 0.015326068 -0.011875529 -0.010443883 0.029548857 -0.029218156
-0.06214457 -0.023443958 0.054301795 -0.054248355 0.048530046 -0.033188645 -0.04846657 -0.0037939537
-0.029175896 0.001659011 0.046997137 -0.062081035 0.014133038 0.0019155786 0.055445448 -0.03221761
0.022870306 0.014415065 -0.056678463 -0.045462202 0.03161575 0.029628104 -0.029394899 0.014867025
-0.057639726 -0.048521046 -0.022612525 0.05442361 -0.026169978 0.014656836 0.026978519 -0.0129749235
0.04412731 0.062162694 0.01978262 0.03358024 -0.0010635806 -0.044311337 -0.019638758 0.052593417

layer2.bias f4 [128]
00000000: f073 353c c8b9 14bd 652b a83d b065 ee3d
00000010: b7d7 063e 4983 bb3d 5e84 263e 9578 7b3d
00000020: 1d10 dc3d 17a6 083e 6b32 72bc 2803 803d
00000030: 44fe ae3d ae69 ed3d 7498 c43d 950c b63d
00000040: 6996 1a3e 2c67 e5bc 4e5c fa3d 1907 8d3d
00000050: 2a0f 903d ecf3 04bd 40a4 673c 5899 e43d
00000060: 3102 f43c 6f39 5cbd 1589 acbc 4a9b da3d
00000070: 5db8 56bd 4563 63bc 207d 243c dc55 67ba
00000080: 8dd2 bc3d 4b01 853d a4ed 083e 96d3 de3d
00000090: caf6 013e 1318 f63d 6dd4 fcbc b905 2abd
000000a0: b6f9 8c3d 9979 623d cd02 b03d 68a4 c63d
000000b0: 5377 933d 85dd 4ebd 124f eb3d 12d6 7f3d
000000c0: d370 73bd 92ff b53d 1faf 1a3e 24b6 143e
000000d0: 8b26 f03b c92a a33d fad9 2dbd 3a3e b73d
000000e0: 6276 9fbc c0cb 253e 51ee 8c3d 83be c63c
000000f0: 135a 713d 177f ad3c e78e 263e 6600 003e
00000100: 08c1 393e f8bd 403b 95f3 123e 1cee af3d
00000110: 5a1e c83d d890 193e 3a88 d13d a61a 1f3e
00000120: d83a 383d 0a08 a23d c9fb ab3c c954 763d
00000130: f9cf bc3d 5b9a e83d a07e 57bd a988 1f3c
00000140: 169f a03d 4920 923d cc00 a03d 11fb f23d
00000150: 6e15 153e 9b9e cb3b cc84 ac3d 9ba6 213e
00000160: e901 183e beb2 a63d 8e1d 0c3e 8979 953d
00000170: 1859 e5bd 30fe c03d 82f0 5f3d 4e60 c7bd
00000180: babf 123d 9e62 08bb b354 24bd 7377 203d
00000190: 6366 2a3d c959 6cbb 9730 0f3e 5d11 c23c
000001a0: b35a f43c 8657 1b3e 16a0 5fbc 98f7 40bc
000001b0: 1254 cd3d 63b5 003e daa6 f53d 425a db3b
000001c0: 3f49 14bd 1076 533d ce82 a73d af05 193d
000001d0: 34f7 063e d074 ab3c 2372 d73d 9f6b 563e
000001e0: 049a e13d 0650 133e 1145 8c3d dce9 023d
000001f0: 7830 a73c e254 033d 2e63 153e 3b9e 953d
0.011075005 -0.036309987 0.08211402 0.11640489 0.13168226 0.091559 0.16261432 0.061394293
0.10745261 0.13344608 -0.014782528 0.06250602 0.08544591 0.115924224 0.095993906 0.088891186
0.1509644 -0.028003298 0.12224637 0.068861194 0.07034142 -0.032459185 0.014138281 0.111620605
0.029786201 -0.05376571 -0.02106146 0.1067415 -0.052421916 -0.013878648 0.010039598 -0.0008824745
0.09219847 0.06494387 0.13371903 0.108802006 0.12691799 0.120163105 -0.030863011 -0.041509364
0.06883566 0.055291746 0.08594284 0.09699327 0.07200494 -0.050504226 0.11489691 0.062460013
-0.05943377 0.08886637 0.15105866 0.14522606 0.0073288134 0.07967145 -0.042444207 0.08947416
-0.019465629 0.16191006 0.06881393 0.024260765 0.058923792 0.021178765 0.1626545 0.12500152
0.18140042 0.0029410105 0.14350732 0.08590338 0.09771414 0.1499666 0.10231061 0.1553751
0.044977993 0.079116896 0.020994084 0.06013945 0.09219355 0.11357566 -0.052610993 0.009737172
0.07842843 0.07135064 0.07812652 0.11864293 0.14558956 0.0062139756 0.084237665 0.15786211
0.14844479 0.08139561 0.13683149 0.072985716 -0.11198634 0.094234824 0.054672725 -0.097351655
0.035827376 -0.0020810734 -0.040119838 0.039176416 0.04160155 -0.0036064258 0.1398338 0.02368992
0.029828405 0.15170106 -0.013649007 -0.011777781 0.10025801 0.12569194 0.11994715 0.006694109
-0.036202665 0.051626265 0.08179246 0.037358936 0.13180238 0.020929724 0.10519817 0.20939492
0.11015704 0.14385995 0.06849111 0.031961307 0.020408854 0.032063372 0.14588615 0.07305571

layer3.weight f4 [4, 128]
00000000: f5ad 013f a34f 763d a8c9 abbe d92d 093f
00000010: bfc3 5ebe 9ce8 e3be b4d0 933e b1f0 aabe
00000020: 56fb 88be b341 0d3f 9950 b3be 0f45 ecbe
00000030: 3615 91be 6910 dd3e ed6d 6ebe bb70 c03e
00000040: 0a4d dc3e 24f7 62be 0260 a8be f2f9 3f3e
00000050: 38dd 083e 0fd8 e93e 54e3 a2bc 7a57 da3e
00000060: 8380 d8be 4e8d 503d cb2e cabe e63d 083f
00000070: 5812 0e3f 2057 d0be c161 dabe 0092 9cbe
00000080: 4d90 893e eff2 163f bd5b fdbd 5761 15bf
00000090: e96a 8dbe 13e7 763d 4230 323f 6e54 be3e
000000a0: 5f24 1e3f ecf2 bb3e 640b dd3e 5d92 a3be
000000b0: d513 2d3f c400 4dbe 0dfa 0c3f db7a cebe
000000c0: d879 55bd 5569 aebe 9d74 ef3e 3ab0 eebc
000000d0: 10e9 bbbe 3539 823f 57c3 7f3d 6ef4 bf3e
000000e0: b9c8 213f d574 bf3e 2ef8 b03e 3eae 5f3e
000000f0: e6e7 dfbe 62b3 b4be 1625 963f 1701 eb3e
00000100: e892 d53e 7504 8ebe 6475 c03e b6eb 293f
00000110: 43a2 143f 20d0 a53e beb3 cfbe 87a5 e53e
00000120: 6977 d0be 58c9 553e 982a 31be 9195 00bf
00000130: 763b a9be 6a6a b2be 6a77 38bd 8e6b 93be
00000140: 2798 a8be 16b2 ddbe a6c6 bbbe 5356 d0be
00000150: a6a2 c5be ff90 e2be 61e3 da3e e347 f23e
00000160: 24a1 183e b327 b93e c7b7 aebe a4d3 f23e
00000170: c997 45be 9fa1 133f ff80 d9be d57e c1bd
00000180: 40be abbd aa80 553d 9b22 d6be 903e d9be
00000190: 99cc 283f a2af 163f 77d9 c0be bd59 b6be
000001a0: b1b5 1a3f b60a 153f 1352 9cbe fec4 ffbe
000001b0: 5b4c a0be 6daf bd3e 13f4 bdbe 7cc9 57be
000001c0: a14f 03bd e3fe e83e 25ea c8be d287 afbe
000001d0: e073 e1be d980 aebe 355a bebe b6e1 bf3e
000001e0: 0863 cabe fee4 ff3e 57ed dd3e e7bf e63e
000001f0: 90eb 77be 5d74 123f 3d6c 61be 938e ed3e
00000200: 6da1 2c3f 1329 9e3c 6283 babe f2d5 153f
00000210: 8ca7 31bd 4c0b 00bf bfe1 e43e c18e 54be
00000220: 991e 9abe 14d5 133f ad18 ddbe 1ac7 c1be
00000230: 43f8 cbbe 5c22 bf3e 86cc 8ebe 9508 983e
00000240: d97d c73e 8a58 37be f6e9 d4be ff67 193f
00000250: 9d88 193f 93c0 e73e 82a7 2c3d 18ae d43e
00000260: 7264 9fbe a8ba cd3c f8bd b7be 60fd 273f
00000270: b796 043f cab3 f1be a104 bfbe 8280 d6be
00000280: cac1 db3d ab58 313f 3f82 213e 0f33 04bf
00000290: f58c ccbe f7d7 903d eb8d 3f3e 92da 27bd
000002a0: bd97 1a3f 599c ad3e d225 533e 24fe d1be
000002b0: 5044 053f 8658 24be aacb e63e bd73 edbe
000002c0: d2b0 4b3d 3731 e2be af5f fb3e 181d 23bf
000002d0: c7d0 cabe fbea b03f bb64 76bd eef9 b33e
000002e0: 3c49 043f 6384 f93e 1274 083f 3c4d f73d
000002f0: b04e bcbe 97ec a8be ea7b 873f 04d1 b03e
00000300: 86db e83e 57c0 6abe 1906 9a3e dda7 2f3f
00000310: a667 393f 6422 d03e 5e87 d0be ad37 233f
00000320: 8e67 adbe daf9 ef3e d6f2 3e3d 1b66 ccbe
00000330: 1788 8ebe 45b1 0cbe 1342 f53b 6ceb b8be
00000340: 32ca cabe fb02 a0be 9723 71be c77d afbe
00000350: 8e24 4cbe 97ed a4be fd78 d63e f82c cb3e
00000360: 0e22 b33f b420 853e 6f4b e2be 2626 b33e
00000370: 7906 84be ae7c 2b3f 3c29 0bbf cd66 1bbf
00000380: 1abf b7be 2bee 253c 3646 bfbe a36d 02bf
00000390: dfbf 103f 4260 283f 8b26 a8be 06ef afbe
000003a0: ca86 183f 6fe8 173f cebc e0be e0a5 d4be
000003b0: c7c4 0fbf 77fc d53e 4d0a 45be 479e 5fbe
000003c0: f01b 013d 9857 fb3e b90c a5be 584f 70be
000003d0: 93f2 cbbe 19c0 ccbe be36 0ebf 3c06 c03e
000003e0: 5f5e bfbe 27fe 153f 2a41 9a3e 2489 133f
000003f0: 0459 8fbe a3e6 063f 4af9 2dbd 5c79 b63e
0.5065606 0.06013454 -0.3355229 0.5358558 -0.21754359 -0.44513404 0.28870165 -0.33386758
-0.26754254 0.55178374 -0.3502243 -0.46146438 -0.28336495 0.43176582 -0.23284121 0.37586007
0.43027526 -0.22164589 -0.32885748 0.1874769 0.13365638 0.45672652 -0.01988379 0.42644864
-0.42285547 0.05091601 -0.39488825 0.5321945 0.5549674 -0.4069147 -0.42652705 -0.3058014
0.26867905 0.5896444 -0.12371013 -0.58351654 -0.27620628 0.060278963 0.69604886 0.3717379
0.6177425 0.36708772 0.43172753 -0.31947604 0.67608386 -0.20019823 0.5506905 -0.40328106
-0.052118152 -0.34064737 0.46768656 -0.029136766 -0.3670125 1.0173708 0.06244215 0.37491173
0.63196903 0.37393823 0.34564346 0.21843812 -0.43731612 -0.35293108 1.1730068 0.4589927
0.41713643 -0.27737775 0.37589562 0.6637529 0.5806009 0.3238535 -0.4056682 0.4485285
-0.40716103 0.20877588 -0.17301404 -0.5022822 -0.33053178 -0.34846812 -0.045035757 -0.28792995
-0.32928583 -0.4329993 -0.36674994 -0.4069086 -0.38600653 -0.44251248 0.427516 0.4732047
0.1490522 0.361631 -0.34124586 0.47427094 -0.19296183 0.5766849 -0.4248123 -0.094480194
-0.08385897 0.052124657 -0.41823277 -0.42430544 0.6593719 0.58861744 -0.37665913 -0.3561534
0.6043349 0.5821947 -0.30531368 -0.4995498 -0.31308255 0.37047902 -0.37100276 -0.21072954
-0.032058362 0.45506963 -0.39241138 -0.3428331 -0.44033718 -0.34082678 -0.37178198 0.3747689
-0.3952868 0.49979395 0.43345138 0.45068285 -0.24210954 0.57208806 -0.22013946 0.46397838
0.67433816 0.019306695 -0.36428362 0.5852958 -0.043372676 -0.5001724 0.4470348 -0.20757581
-0.3010147 0.57747006 -0.4318289 -0.37847215 -0.39837846 0.37330902 -0.27890414 0.29694048
0.38963202 -0.17904869 -0.41584748 0.5992431 0.5997408 0.4526411 0.042151935 0.41539073
-0.3113132 0.025113419 -0.35887122 0.65620995 0.5179247 -0.4720748 -0.3730822 -0.4189492
0.10730322 0.6927592 0.15772341 -0.5164041 -0.39951292 0.07072442 0.18706481 -0.04097993
0.60387784 0.33908346 0.20619896 -0.41014206 0.5205736 -0.16049394 0.45077258 -0.46377364
0.049729176 -0.44178173 0.49096438 -0.6371627 -0.3961241 1.382171 -0.060154658 0.3515162
0.51674247 0.48733816 0.5330211 0.12075278 -0.36778784 -0.32993004 1.058469 0.34534466
0.45479983 -0.22924934 0.30082777 0.68615514 0.7242378 0.40651238 -0.40728277 0.6375683
-0.33868068 0.4687031 0.046618305 -0.3992165 -0.27838203 -0.13739498 0.0074846833 -0.36117113
-0.39607388 -0.31252274 -0.23548733 -0.34275648 -0.1993582 -0.32212517 0.41889182 0.39682746
1.3994768 0.26001513 -0.44198176 0.34990042 -0.25786188 0.6698712 -0.54359794 -0.60703737
-0.35887986 0.010127584 -0.37358254 -0.5094854 0.5654277 0.6577188 -0.32841906 -0.34362048
0.5958067 0.5933904 -0.43894047 -0.41532803 -0.56159633 0.41794178 -0.1924221 -0.21837722
0.031520784 0.49090266 -0.3223627 -0.23467767 -0.39833507 -0.3999031 -0.5555228 0.37504756
-0.37376687 0.5859093 0.3012784 0.57631135 -0.279976 0.52695674 -0.04247407 0.35639465

layer3.bias f4 [4]
00000000: 6720 cc3c 2c77 b73b ec02 ff3c ce94 9b3c
0.024917794 0.005598923 0.031129323 0.018991854
