lunar_policy_net.pth (torch, 74975 bytes, 6 tensors)

layer1.weight f4 [128, 8]
00000000: ef38 02bf 3850 c1bd 82c0 fcbe 2c74 07bf
00000010: 3d64 833e 3f3e 49be b04f 94bd c605 4abd
00000020: f3c1 cd3e 6d47 a5be 39ba 593e dbbd cdbe
00000030: ef01 9cbd 91ed 293e e958 7a3e 592d 6d3d
00000040: bfea 563e 2a7e be3d ca82 a83e cefb 84bc
00000050: 618d 96bd c0ef 3c3e 9a41 d1bd 29c5 a0be
00000060: ceb1 8dbe 7085 db3e b522 90be a921 99bd
00000070: 7f8d e2be 07e9 4a3e a167 1d3d a26f ca3d
00000080: f4a2 fd3d 980d 823e 45e4 09bf 01a5 1dbf
00000090: f898 0fbf 47a3 c93b ccb4 5b3e 2494 743d
000000a0: c13b d6bb 4606 6b3e 8355 d2be df97 243d
000000b0: 80a7 8bbd 6c26 9cbe e311 21bf 8b49 983c
000000c0: c492 91be 147c ab3e 673f 32bd 1be3 62be
000000d0: 9428 093f bd47 503d 0ae4 b0be 22b7 c8be
000000e0: e33c 69be 7aff eabb e5d4 f5be 97ed 4a3f
000000f0: a44d 24be 190b 85be d0b2 02bf 9107 70be
00000100: baf9 3dbe 44a7 d3bc 7176 f73d d0ee 0bbf
00000110: 3ea2 aebd 3b77 423e d4fb 483e a411 013e
00000120: 5ca3 913e ec4e 5dbd 5e35 0f3f 0dad 2c3d
00000130: 0b42 a0be 69ca 363e 07a0 35bd ad4e edbe
00000140: d503 19bf 630d b6bd 18e0 a0be 954a 1c3e
00000150: ab8f ee3e 3f7d 063e c66a 5c3e 42de 54be
00000160: 26a6 1ebe 3234 3e3c 4796 2c3d 9226 febb
00000170: 8358 4c3e a38a f53e d552 10be db13 9cbe
00000180: e647 6cbe e896 8ebd 57e5 8abd d0f1 35be
00000190: 6f2d 45bc 4404 8a3e 7e23 233e f668 f3be
000001a0: 4335 123d cdbe f63d 79e7 923e 45b1 7ebf
000001b0: 3c8a 62be 54ed babe 7d5e bebd 4e68 a0bc
000001c0: bc40 dbbe 25ee 873e 2df9 2cbe 38b8 59bd
000001d0: c5a9 52be aae9 8e3e b1fd 333e 7640 543e
000001e0: f015 a2bd 4238 bbbd bb16 bc3f 5333 d03e
000001f0: d9ab 493d 7508 2c3d 054a 4d3e 01b3 62be
00000200: 6197 a7bd 0655 b53e cfdd e6bd 7ae5 85be
00000210: 546a 0b3c 3af9 5e3e 8ac1 793e 3b68 303e
00000220: 2c64 9abe a2bd 27be 2c5e 7cbd 7726 10be
00000230: 3f56 353e 82ae b63e b4ef 01bd 0583 c6be
00000240: 9eeb 96be 228e f1bd b42f 6ebe 7173 9fbe
00000250: 2b80 443f b8c0 063f 2a74 903d a7a6 1ebe
00000260: c9b5 113e ffb9 993e 712b 80be 29d6 363d
00000270: 6a44 c2bc 30c0 12bf 61f5 f2be 2c48 5bbe
00000280: bfd1 35be 2719 a73e 776a ad3e aede c8be
00000290: 708a e8bb f665 d83d c55b b63d 694b 283e
000002a0: 62e0 e03e d441 a2bc d6e7 f03c dd77 263f
000002b0: 3ce5 dfbe afbd b0be 0998 fd3a 4598 16bd
000002c0: 2bb9 6f3d 6e26 b9bd 6a4b 613e f0df 883f
000002d0: b390 dbbe 4432 273e cd58 0c3e f943 353d
000002e0: 0eea 7fbe afd9 b93e 236f 96be b705 42be
000002f0: becc 323f 85c1 993d c624 e0be ede5 7ebd
00000300: 57a7 a93d 5edc 21be fd5c 8d3e 0c4f 93be
00000310: 9372 afbe 0b95 21bf 3139 9bbe a3ad 5d3e
00000320: 2e3f 09bd b6e5 83be 3eb9 1c3e 7a2e 0fbf
00000330: 86cf 4abd 1f43 163e c676 673e 4d4f 273d
00000340: 4934 a3be 7538 683e bf0b 6ebd 4420 c1be
00000350: 78da febd 76f0 31bd 98fe cdbe f2d3 bcbe
00000360: 8957 db3d e0a6 c93d 7bc1 c9be 4bde 35bf
00000370: 375d 1abe 0fd4 1abe 3708 b33d fa2a 9a3c
00000380: 1197 f43c 9307 6d3e fd38 9e3e 037e 47bf
00000390: a0ba 8d3f 6f40 a73e 9b36 ab3c e2d9 9d3d
000003a0: a20f ba3d 1645 413e 973d a83e 724c e5be
000003b0: e0a9 243e 7ed5 e8bc 8d5a c03e 456c 5a3d
000003c0: d9d3 04be 8ef7 cc3e 3d9e 1f3c cc07 56bf
000003d0: b08c b83e cc57 18bf 771a a0bd 696d 8e3e
000003e0: 060b 87be b78a ea3e 7d75 84bd e0ad 1fbf
000003f0: aac0 043c ac3f fbbe 13b0 db3d 3cfd 433d
-0.50868124 -0.09439129 -0.49365622 -0.5291164 0.25662413 -0.19652651 -0.07241762 -0.049321912
0.40187034 -0.32281056 0.21262445 -0.4018391 -0.07617556 0.1659453 0.24447979 0.057904575
0.20987986 0.09301408 0.32912284 -0.016233351 -0.07351185 0.18450832 -0.10217591 -0.3140042
-0.27674717 0.42875242 -0.2815148 -0.07477123 -0.44248578 0.19815455 0.038428906 0.098845735
0.123845965 0.25400996 -0.53863937 -0.615799 -0.56092787 0.0061534974 0.21455687 0.05971159
-0.006537885 0.22951612 -0.41080865 0.040183898 -0.068190575 -0.30498064 -0.6291792 0.018589756
-0.28432286 0.33493102 -0.043517496 -0.22156946 0.5357754 0.050849665 -0.3454898 -0.3920222
-0.22777133 -0.0071715685 -0.48013988 0.79268783 -0.16045243 -0.2598503 -0.51054096 -0.23440386
-0.18552294 -0.025836594 0.12083138 -0.54661274 -0.08527039 0.18990795 0.19627315 0.12604386
0.28444946 -0.054030344 0.55940807 0.04215722 -0.31300387 0.17850651 -0.044342067 -0.46349087
-0.5977147 -0.08889272 -0.3142097 0.15262826 0.46593985 0.13133715 0.21525106 -0.2078791
-0.15493068 0.011609124 0.042135503 -0.007756063 0.1995564 0.47957334 -0.14094098 -0.304839
-0.23074302 -0.06962377 -0.06782024 -0.17768025 -0.012034758 0.2695638 0.15931508 -0.47541016
0.035695326 0.12048111 0.28692225 -0.9948924 -0.22123045 -0.36509192 -0.09295366 -0.019580986
-0.42822826 0.26548877 -0.16891928 -0.0531542 -0.20572574 0.27912647 0.17577244 0.20727715
-0.079143405 -0.0914159 1.4694437 0.40664157 0.049236152 0.042000253 0.20047767 -0.22138597
-0.0818317 0.3541643 -0.112727754 -0.2615164 0.008509237 0.2177476 0.24390236 0.17227261
-0.3015455 -0.16380933 -0.061613247 -0.14077173 0.17708682 0.35680014 -0.03172274 -0.38771835
-0.29476637 -0.11794688 -0.23260385 -0.31142762 0.7675807 0.52637815 0.070534065 -0.1549326
0.14229502 0.30024716 -0.25033143 0.044637833 -0.023714263 -0.57324505 -0.47452834 -0.2141425
-0.17755793 0.32636377 0.3387029 -0.3923239 -0.007096581 0.105663225 0.089042224 0.16435017
0.4392119 -0.01980678 0.029407423 0.65026647 -0.4372958 -0.34519717 0.0019347678 -0.03676631
0.0585262 -0.09040533 0.22001424 1.069334 -0.42883834 0.16327769 0.1370575 0.044254277
-0.24991629 0.36298892 -0.29381666 -0.18947493 0.6984366 0.07507614 -0.43778056 -0.062230993
0.08283871 -0.1580672 0.27610007 -0.28771245 -0.342671 -0.63118047 -0.3031707 0.21648268
-0.03350752 -0.25761193 0.1530504 -0.5593029 -0.049514316 0.14674042 0.22603902 0.04084711
-0.31875828 0.22677787 -0.05811667 -0.3771993 -0.12444013 -0.043442212 -0.40233302 -0.3688045
0.107100554 0.09846282 -0.39405426 -0.7104232 -0.15074621 -0.15119956 0.08741801 0.018819321
0.02985719 0.2314742 0.30902854 -0.77926654 1.1072578 0.32666346 0.020900061 0.077075735
0.09085013 0.1887401 0.3285949 -0.44784886 0.16080427 -0.028422114 0.37569085 0.05332591
-0.12971438 0.4003262 0.009742317 -0.8360565 0.36044836 -0.5950897 -0.07817548 0.27817848
-0.26375598 0.45808956 -0.064677216 -0.6237469 0.008102575 -0.49072015 0.10726943 0.047848925

layer1.bias f4 [128]
00000000: 7344 69bd f6ce 333c 773b 0c3e 9701 623e
00000010: 2385 a33c d857 f73d 266b 02be 111f 2f3e
00000020: aa68 6f3e eb83 533e ba9a 143d a640 dabe
00000030: 947e b0be 4bce b03e 0d8a 653e 54ed 393c
00000040: 1c39 2c3e e67c b0be d674 3abe 0376 f8bb
00000050: c098 423e c41f 883e cfd0 a33e 7099 473e
00000060: bac2 0cbe dd3b 4e3e 9999 ea3b e959 9d3d
00000070: cb30 b93e 761c b53e 7a0a 27be 5a6e 85bd
00000080: 354f 3d3e 4916 f33d c436 6e3e a1ff c93e
00000090: 0153 f4bd 7f09 433e 65e8 90be 3180 3d3e
000000a0: ccd7 553c 77e6 993e 3e2c 3a3e 8f2a 733e
000000b0: df31 c63e 92ef 6dbd c814 b23e 1b6d 943e
000000c0: 74ad b33e 7ec7 323e 6ddf 1b3e 0b8e a53d
000000d0: 5b8d 01bd 051f 983e 9fb3 88bd 66c4 833e
000000e0: e9da 763d cb51 3dbe e2c5 623e 78a3 ab3e
000000f0: 1327 0e3e d308 7dbe 34ac 373e 8f70 a23e
00000100: ed13 033e 8383 2c3e e423 7dbe cb96 e13d
00000110: 1ab6 80bc 983f 623e f7b2 a4bd 9859 c53e
00000120: b7c6 ddb9 e87f d13d 5150 3fbd 5722 e6bc
00000130: a940 113e c12c 003e 424c d23e 11b4 203e
00000140: 4783 0b3e 2aeb 3a3e 0014 aa3a 055c 633e
00000150: 5362 b7be 1d5a 7d3d 3c96 143d eb9b 9abb
00000160: 924d 9a3e 406d 8b3e 4496 bfbe f11b 9c3e
00000170: 7505 f33d 0b10 88bd bd43 b93e fcc4 1bbd
00000180: 7ee2 b93d baa9 8ebe bf69 babe 90bf ae3e
00000190: e784 983e f7b7 a83e 8ddf b3be f0a2 aabb
000001a0: 392f bc3d 9c31 8e3e ec9c 033e d609 363d
000001b0: 3158 2e3e fb46 1dbe bf61 5d3e 13a1 9f3e
000001c0: c1eb 9c3e 37a9 8d3e b36d 013e 5b17 0b3e
000001d0: 6fce c03e 6f8f 0d3d 6551 4c3e 0a11 27be
000001e0: b770 d73e 2a33 a7be cc95 27bb 6364 ad3e
000001f0: ea5a a93e 8ae0 e1bd 88b3 46be 0c50 ab3c
-0.056950044 0.010974636 0.13694559 0.22070919 0.019960945 0.12077302 -0.12736186 0.17101695
0.2337977 0.20655791 0.03628037 -0.42627448 -0.3447157 0.3453239 0.22415943 0.011348087
0.1681866 -0.3447029 -0.18208632 -0.0075824275 0.19003582 0.26586735 0.31995246 0.19492126
-0.13746157 0.20140024 0.0071594235 0.076831646 0.3617004 0.35373276 -0.1631259 -0.065151885
0.18487246 0.11869485 0.23263079 0.39452842 -0.11929894 0.19046591 -0.28302303 0.18505932
0.013051938 0.30058643 0.1818094 0.23746704 0.38709924 -0.0580898 0.3478148 0.2898949
0.35093272 0.17458913 0.15221949 0.08083733 -0.031628948 0.29711166 -0.06674885 0.25735778
0.060267363 -0.18488233 0.22145799 0.33523154 0.13882093 -0.24710397 0.17936784 0.317265
0.1280057 0.16847043 -0.24720722 0.110150896 -0.015711833 0.22094572 -0.08041947 0.38544917
-0.0004230046 0.10229474 -0.046707455 -0.028092546 0.14184822 0.12517072 0.41073805 0.1569369
0.13624297 0.1825377 0.0012975931 0.22203071 -0.35817203 0.061853517 0.036276087 -0.004718294
0.30137306 0.2723179 -0.3741933 0.30490068 0.11866275 -0.06643685 0.36184493 -0.038029656
0.09076403 -0.27863866 -0.36408803 0.34130526 0.29788896 0.32952854 -0.35131493 -0.005207412
0.091886945 0.27772224 0.1285283 0.044442974 0.1702583 -0.15359108 0.21619318 0.31177577
0.30648616 0.27668163 0.12639503 0.13583128 0.37657496 0.034560617 0.19952925 -0.16315094
0.42078182 -0.32656223 -0.0025571464 0.3386565 0.33077174 -0.110291556 -0.19404423 0.020912193

layer2.weight f4 [128, 128]
00000000: 6a45 b1be 37c4 acbd 9f18 34be da67 b83d
00000010: 968d 033f 695d 91bb 3053 063e 4d0f 90be
00000020: ca81 9a3e 9d5f c0be b3c8 dabe 6f97 88be
00000030: 10fc aabe 8c81 373e 251a 5d3d b34d 8b3f
00000040: 4d06 663d 08fa a5bd b381 dbbe 21c7 d5bc
00000050: e3f6 723e 6f41 7fbe 45c2 5bbe b782 423d
00000060: 4dd5 23be c401 db3e 1f11 8e3e c6f3 763e
00000070: 07fb 3f3d d84b c53d f4b8 a23e eec6 863e
00000080: af9d d1be 4b86 a03e 4506 a83e 822b dbbd
00000090: 8155 723e 942c fdbe 3216 11be 589d 623e
000000a0: 8b05 e3be e58a b6bd 7c36 f33d 22b7 d93e
000000b0: 8c56 cb3b 5da3 dabe 2aa4 6cbd 8791 8e3e
000000c0: c3fd c3be 0a9d c43d f786 3cbe d94b 6a3e
000000d0: 226f c33c 3d73 60be 1ed5 6d3e 88ce b4be
000000e0: a57e 71be 9dec a4be ac2a 063e d1bd 993c
000000f0: 0511 bfbe e5de 7ebe e39c 48be 01b5 93bd
00000100: 298c 643e 7c79 d3be dc9c 8f3c 48ef c43d
00000110: 2d25 5c3f 98e6 6fbd b5a1 98be 2665 98be
00000120: 8e05 7b3e aa99 afbe a644 e2be 0a67 9b3d
00000130: 9807 9ebd 3652 343e f6b2 fe3d e88c d13e
00000140: 5654 af3e 7f90 39bd 2f49 7d3f 9ddd f13d
00000150: e68f 6abf d547 3d3e d588 c33e 56fe d63e
00000160: adf0 2abe 94ce aabd 0bdc eb3d 3d10 0fbd
00000170: bb38 1b3e 6478 96be 02f9 6e3e bd86 b73e
00000180: 9930 573e 2017 31be 8207 74be cf83 ee3d
00000190: 6703 033e ae84 abbe 6d81 4dbd 358b f3be
000001a0: 9f1b debd 88b3 8b3e 1811 4ebe 385f 963e
000001b0: 07f8 e83e b711 a3bd 0b92 ae3e 48fe 8dbe
000001c0: 5aa6 313d 9fd4 47be 1fe1 d9be 7451 f9bd
000001d0: 727f 823e dc87 503e 0559 8dbe bd80 87be
000001e0: a7df 25be e642 0cbe 284a 173f 00b0 243e
000001f0: 15cb 413e 8ddb 3abe 0286 8c3e 5cac 893e
00000200: 2d64 debb 8864 013b ec84 63bd 7528 c4bc
00000210: f7f0 85bc e521 60bd 80c6 43bd 0b16 4d3c
00000220: 7aa6 42bd f0a1 013b 9d0e f63b 4aa3 c5b7
00000230: 4ea1 383c dfd2 a2bc c552 6e3c 25a3 05bd
00000240: 7339 413d 7852 84bd 5548 27bb 1977 4a3d
00000250: 6f5b ebbc 1a2a aabc d7ee 44bd ad85 74bd
00000260: a8a2 4fbd 04ad 5b3d 28d0 343d e070 66bd
00000270: 0cfa 2bbd 20c7 4c3c e815 373d 9a6e 4ebc
00000280: f599 fd3c 79fc 283d dd34 243d b623 3bbd
00000290: f904 0abd 3f34 863d 86f2 823d 765b a43c
000002a0: 26c1 aebb f240 2ebd 10a9 093d eb83 133d
000002b0: 4ba3 67bd 2514 7c3d b28e c83c 9ec2 d9bc
000002c0: e1a7 aabb 14fc 32bd 4671 d1bc 8ac3 f1bc
000002d0: ca50 2ebd 7646 06bd abfe fdba 1de1 f4bb
000002e0: ae48 84bd 39e4 65bc 67b1 1b3d 6394 603d
000002f0: 6306 f4bc bf60 54bd 2ded 743c 3faf 8e3c
00000300: 613b 62bc 8612 14bd 6ae0 573d 7392 54bd
00000310: ff60 843d ac6e 3fbb f923 80bb fec8 30bd
00000320: b9f9 0ebd 7727 173d ddbc 75bc cbf3 4ebb
00000330: b491 57bd f7ae f0bc 90b5 db3c e811 a6bc
00000340: 3300 28bd 50c1 833d cbac 9dbb eb0c 7b3c
00000350: 6c87 42bc 3a14 2bbc ec03 f23c 684e efbc
00000360: 097e 7ebd 6303 c0bc d65f 5e3d cc27 5ebd
00000370: 49bd 463d c9e9 07bd ba7a 46bd b596 78bb
00000380: c7f5 eebc 3c68 d93a ea75 403d 6a3b 7ebd
00000390: 8682 673c e206 fb3a 0b0f 633d 95ef 03bd
000003a0: 2051 bb3c a820 6c3c f21b 68bd 312d 3abd
000003b0: 7c78 013d 1faa f23c 0dc1 f0bc 5188 733c
000003c0: 1d0b 6cbd d9b3 46bd 8634 b9bc 92df 5e3d
000003d0: 7d57 d6bc b516 703c 54f6 dc3c d689 54bc
000003e0: 75b5 343d 0a91 7e3d 9106 a23c 6784 093d
000003f0: d060 8bba 6c76 35bd ded8 a0bc 4261 573d
-0.3462327 -0.084358625 -0.17587517 0.09004183 0.5138792 -0.004436184 0.13117671 -0.28136674
0.30177146 -0.37572947 -0.42731246 -0.26678035 -0.33395433 0.17920512 0.05398001 1.0883087
0.056158353 -0.0810433 -0.4287239 -0.026095929 0.23726992 -0.24927305 -0.21460827 0.04748794
-0.15999337 0.42774785 0.27747437 0.2411643 0.046870258 0.09633607 0.31781733 0.26323646
-0.40940616 0.31352457 0.32817283 -0.10701658 0.2366543 -0.49448073 -0.14168623 0.22130334
-0.44340166 -0.08913211 0.118756264 0.42522532 0.0062053856 -0.4270276 -0.057773747 0.27845404
-0.38279542 0.09600265 -0.1841086 0.22880496 0.023856703 -0.2191896 0.23225829 -0.3531382
-0.23583467 -0.32211772 0.13102216 0.01876727 -0.37317672 -0.24889715 -0.19591098 -0.07212258
0.22319092 -0.41303623 0.017530851 0.09615952 0.85994226 -0.05856952 -0.29810873 -0.2976467
0.24513838 -0.34296924 -0.44193 0.075880125 -0.07716292 0.17609486 0.12436478 0.40927815
0.3424403 -0.045303818 0.98939794 0.118098475 -0.9162582 0.18484433 0.38190332 0.41990918
-0.16693373 -0.08340183 0.11516579 -0.034927595 0.1515836 -0.29388726 0.23337176 0.35844985
0.21014632 -0.17293978 -0.23830989 0.11646234 0.12794267 -0.33499664 -0.05017226 -0.47567144
-0.10845112 0.2728541 -0.20123708 0.2936952 0.4550173 -0.07962363 0.34095797 -0.27733064
0.043371536 -0.19514702 -0.42554566 -0.12173739 0.25487858 0.20364326 -0.2760698 -0.26465407
-0.16198598 -0.13697395 0.5909753 0.16082764 0.18925126 -0.18247814 0.2744599 0.26889312
-0.006786844 0.001974376 -0.055546686 -0.023945073 -0.016350253 -0.054719824 -0.047796726 0.0125174625
-0.047522046 0.001978036 0.0075090663 -2.3560267e-05 0.011268927 -0.019875942 0.014546101 -0.03262629
0.04717393 -0.06461042 -0.002552529 0.049429987 -0.028730122 -0.020772029 -0.048079338 -0.059697796
-0.05069223 0.053631797 0.044143826 -0.05625999 -0.04198651 0.012498647 0.044698626 -0.012599612
0.030957201 0.0412564 0.040089477 -0.045688353 -0.03369615 0.06552934 0.06393914 0.020063143
-0.0053330837 -0.042542405 0.033608496 0.03601448 -0.056552213 0.06154265 0.024482105 -0.026582059
-0.005208001 -0.04369743 -0.025566708 -0.029512186 -0.042557515 -0.03278204 -0.0019378265 -0.0074731247
-0.06459175 -0.014031463 0.03801098 0.054829013 -0.029788202 -0.051850077 0.014949125 0.017417548
-0.013808102 -0.036150478 0.052704252 -0.051897477 0.06463813 -0.0029210253 -0.0039105383 -0.04316043
-0.034906123 0.03690287 -0.014998642 -0.0031578417 -0.052629188 -0.029380305 0.026819974 -0.02027221
-0.041015815 0.06433356 -0.0048118583 0.015322904 -0.011873107 -0.010441834 0.029542886 -0.029212192
-0.062131915 -0.023439115 0.054290615 -0.054237172 0.04852036 -0.03318194 -0.048456885 -0.0037931625
-0.02916993 0.001658685 0.04698745 -0.06206838 0.01413024 0.0019151832 0.055434268 -0.032210905
0.022865832 0.014412083 -0.056667276 -0.045453254 0.031609043 0.029622136 -0.029388929 0.014864043
-0.057627786 -0.04851136 -0.022608053 0.054412432 -0.026164765 0.014653851 0.026972927 -0.012972316
0.044118363 0.06215004 0.019778522 0.033573534 -0.0010633711 -0.04430239 -0.01963466 0.052582987

layer2.bias f4 [128]
00000000: 0e1b 333c f0b1 14bd f038 a83d b56f ee3d
00000010: 92ee 063e 53aa bb3d e89d 263e 46d9 7b3d
00000020: 1dba db3d 34ea 083e b910 72bc 7ac3 7f3d
00000030: 74fa ae3d 3dbf ed3d f800 c53d 7f5b b63d
00000040: e093 1a3e 6753 e6bc 7729 fa3d 63fc 8c3d
00000050: 2a04 923d c7e0 04bd 8798 673c 571e e53d
00000060: 6cd9 f43c b72d 5cbd 8ec7 abbc 3f2d db3d
00000070: 148c 56bd 5b91 64bc a689 243c 673e 6cba
00000080: ba8a bb3d a593 853d b108 093e 4475 de3d
00000090: bec6 013e bcd6 f73d a30d febc 31dc 27bd
000000a0: 4e28 8d3d bdaf 623d fc48 b03d 0462 c63d
000000b0: f66f 933d 16a0 4ebd bfe2 eb3d 3148 7f3d
000000c0: 5364 73bd 77c2 b53d 9ffb 1a3e 9aa9 143e
000000d0: 3f1d eb3b a628 a33d 9ad0 2dbd 409c b73d
000000e0: 6cb2 9fbc dfe6 253e 1c23 8d3d fd93 bc3c
000000f0: c60e 713d bc5c ad3c 3bd6 263e c731 003e
00000100: 20c5 393e c874 4a3b 49fe 123e 7407 b03d
00000110: d5b9 c83d 159b 193e a384 d13d 7277 1f3e
00000120: d7a6 383d 4244 a23d ef44 ad3c 93c4 753d
00000130: d09c bc3d 5ca6 e83d b173 57bd 0949 1f3c
00000140: 669b a03d 290e 923d e12c a03d 376a f23d
00000150: 8e19 153e afc9 cc3b 8b28 ad3d 91aa 213e
00000160: 3b7e 183e b7f6 a63d 0f03 0c3e 0be2 953d
00000170: fcbf e4bd 66b6 c13d a966 5f3d 7fa6 c6bd
00000180: d1f6 113d 965b 08bb 1e69 24bd 4907 203d
00000190: 3b82 2a3d 16a0 77bb 4823 0f3e 4255 c23c
000001a0: cb9e f33c c291 1b3e b8ca 60bc 8051 43bc
000001b0: d7d2 cc3d b2b5 003e 10b1 f53d deb0 d53b
000001c0: 6c41 14bd 53ac 543d e12c a73d c30d 1a3d
000001d0: 27cf 063e 71cd ab3c a50b d73d 9268 563e
000001e0: d78c e13d 5baf 133e b29b 8c3d 6230 033d
000001f0: 3e4c a53c 29dd 023d 6d85 153e 0401 963d
0.010931743 -0.036302507 0.08213985 0.116424 0.13176945 0.09163346 0.16271174 0.061486505
0.10728858 0.13370591 -0.014774495 0.06244228 0.08543864 0.116087414 0.096193254 0.0890417
0.15095472 -0.028115941 0.1221494 0.068840764 0.071297005 -0.032440927 0.014135486 0.111874275
0.029888831 -0.053754535 -0.020969179 0.107019894 -0.052379683 -0.013950671 0.010042584 -0.0009011984
0.09157319 0.065223016 0.13382222 0.108622104 0.1267347 0.12101504 -0.031012362 -0.040981475
0.06892453 0.05534338 0.08607671 0.09686664 0.07199089 -0.05044564 0.11517858 0.062324706
-0.05942185 0.08874982 0.15135048 0.14517823 0.0071751173 0.079667374 -0.042435266 0.08965349
-0.019494258 0.16201352 0.06891462 0.023019785 0.05885198 0.021162383 0.1629266 0.12518989
0.18141603 0.003089236 0.14354815 0.085951716 0.0980107 0.15000565 0.102303766 0.15572909
0.045080986 0.079231754 0.021151034 0.06000192 0.09209597 0.113598555 -0.052600566 0.009722003
0.0784214 0.07131607 0.0782106 0.11836665 0.1456053 0.0062496285 0.084549986 0.15787722
0.14891903 0.08152526 0.13673042 0.07318505 -0.111694306 0.09458618 0.054541264 -0.09699725
0.035635773 -0.0020806543 -0.04013931 0.039069448 0.041628104 -0.0037784628 0.13978302 0.023722295
0.029738804 0.15192321 -0.013720207 -0.011921287 0.10001152 0.12569311 0.119966626 0.0065213284
-0.036195204 0.051922154 0.08162857 0.03761078 0.1316496 0.020971986 0.10500268 0.20938328
0.11013191 0.14422362 0.06865634 0.032028563 0.020177957 0.031949196 0.14601679 0.073244125

layer3.weight f4 [4, 128]
00000000: a7ce 013f 2143 763d 05f2 abbe c64f 093f
00000010: 7ca3 5ebe 60f2 e3be e5c5 933e 88fd aabe
00000020: aaf1 88be 0445 0d3f 9260 b3be 4aa6 ecbe
00000030: 1424 91be 5a12 dd3e 8e81 6ebe 4d76 c03e
00000040: 143b dc3e aeeb 62be 8085 a8be af4d 403e
00000050: 9631 093e 66fe e93e bcda a2bc 3367 da3e
00000060: f797 d8be 5e82 503d 6438 cabe 5b4e 083f
00000070: 3bfb 0d3f 788d d0be da6f dabe 549b 9cbe
00000080: e359 893e 3af2 163f 09bf febd 5b9d 15bf
00000090: 4dbd 8dbe c8e6 763d a225 323f 7f80 be3e
000000a0: 6b45 1e3f a6df bb3e ff44 dd3e 15c5 a3be
000000b0: 2008 2d3f f5cc 4cbe 710e 0d3f 66c7 cebe
000000c0: e86e 55bd e677 aebe 6b8a ef3e 5c7e efbc
000000d0: 8527 bcbe 433c 823f 12b6 7f3d 04f2 bf3e
000000e0: 43e5 213f ae53 bf3e 31f4 b03e 9d37 5f3e
000000f0: 8234 e0be 3dcb b4be 6a25 963f 430e eb3e
00000100: c57e d53e 5feb 8dbe 6a6f c03e f300 2a3f
00000110: 53a6 143f 39cb a53e 85c2 cfbe c3b4 e53e
00000120: f18b d0be 1eb6 553e 5ab6 30be 21bb 00bf
00000130: fc2e a9be 2755 b2be 086e 38bd 537d 93be
00000140: d0af a8be 041c debe 37fe bbbe b341 d0be
00000150: 05b2 c5be c9a1 e2be 59bb da3e ef46 f23e
00000160: 0244 183e 302e b93e 46e0 aebe 30dd f23e
00000170: a38d 45be 65b7 133f 9bb8 d9be f0ea bebd
00000180: ce53 abbd ba75 553d 54c8 d5be f571 d9be
00000190: 69b2 283f 1bc4 163f 3eef c0be 726e b6be
000001a0: 75c5 1a3f 9413 153f 4360 9cbe 4cc2 ffbe
000001b0: 4577 a0be d19b bd3e dbe6 bdbe e6aa 57be
000001c0: 9948 03bd 181e e93e 5efd c8be 7a51 afbe
000001d0: eeac e1be c48a aebe 0896 bebe 8cc7 bf3e
000001e0: 7885 cabe c008 003f 84f5 dd3e e38c e63e
000001f0: 42e3 77be af82 123f 4d50 61be 6f97 ed3e
00000200: f2a9 2c3f 7d20 9e3c 1e84 babe 81d9 153f
00000210: 4c6d 31bd fefd ffbe dffc e43e 1dad 54be
00000220: 8340 9abe 54de 133f 9c2a ddbe 61c3 c1be
00000230: 5118 ccbe a22a bf3e 149e 8ebe 0b0a 983e
00000240: 2987 c73e 2d56 37be 15ef d4be f158 193f
00000250: e48a 193f c8a4 e73e ea9e 2c3d fdb5 d43e
00000260: ab66 9fbe b8af cd3c 9cc7 b7be 8721 283f
00000270: 2a98 043f 5ac9 f1be 800d bfbe 5197 d6be
00000280: f2a1 db3d d687 313f 57e5 213e 4d2f 04bf
00000290: e68f ccbe 5d1e 913d e8b9 3f3e 796b 27bd
000002a0: 1d9c 1a3f 78a0 ad3e 2a1b 533e 40ee d1be
000002b0: cb48 053f a16e 24be f0db e63e 2a7b edbe
000002c0: e3a5 4b3d 174c e2be 2c67 fb3e 1180 23bf
000002d0: 33ea cabe 022c b13f 3858 76bd db01 b43e
000002e0: 0447 043f 0fa3 f93e ee97 083f a056 f63d
000002f0: db4e bcbe 2cf0 a8be 7270 873f 19ce b03e
00000300: c2ed e83e a9fc 6abe c109 9a3e 9db6 2f3f
00000310: 4a99 393f c32f d03e c891 d0be 1f42 233f
00000320: f471 adbe af39 f03e d6a5 3d3d e559 ccbe
00000330: c8a1 8ebe 15f6 0cbe 9135 f53b 7ff9 b8be
00000340: 9ed9 cabe dbf8 9fbe 330f 71be 705c afbe
00000350: 34f4 4bbe bff4 a4be 988e d63e c032 cb3e
00000360: 874d b33f f023 853e 6c31 e2be f61e b33e
00000370: 4a09 84be 0c91 2b3f 3c2a 0bbf fafd 1bbf
00000380: 3a49 b8be 93e5 253c 0588 bfbe ab7c 02bf
00000390: bdc4 103f 2f71 283f ab1f a8be 1cf0 afbe
000003a0: b498 183f e1f1 173f 7dcf e0be dbcc d4be
000003b0: bbac 0fbf 6706 d63e 872a 45be 8dbb 5fbe
000003c0: e814 013d 6243 fb3e 7112 a5be 5374 70be
000003d0: eefc cbbe 36ce ccbe e53e 0ebf ac12 c03e
000003e0: f63d bfbe f209 163f 8538 9a3e 438d 133f
000003f0: 157e 8fbe a2f7 063f b2f4 2dbd 0477 b63e
0.5070595 0.060122613 -0.33583084 0.5363735 -0.21742052 -0.44520855 0.2886192 -0.33396554
-0.26746875 0.55183434 -0.35034615 -0.46220618 -0.28347838 0.43178064 -0.23291609 0.37590256
0.43013823 -0.22160217 -0.32914352 0.18779634 0.13397822 0.45701903 -0.019879691 0.4265686
-0.4230344 0.050905578 -0.39496148 0.5324456 0.5546147 -0.40732932 -0.4266346 -0.30587256
0.2682639 0.5896336 -0.12438781 -0.5844323 -0.27683488 0.060278684 0.69588673 0.3720741
0.61824673 0.36694068 0.43216702 -0.319863 0.6759052 -0.2000006 0.5510016 -0.40386504
-0.05210772 -0.3407585 0.46785292 -0.029235058 -0.367489 1.017464 0.062429495 0.3748933
0.6324045 0.3736853 0.34561303 0.21798559 -0.4379006 -0.35311309 1.1730168 0.45909318
0.4169828 -0.27718636 0.37585002 0.664077 0.5806629 0.3238161 -0.40578094 0.44864473
-0.40731767 0.20870253 -0.17257062 -0.50285536 -0.3304366 -0.3483059 -0.04502681 -0.28806552
-0.32946634 -0.4338075 -0.36717388 -0.40675125 -0.3861238 -0.44264057 0.4272106 0.47319743
0.14869693 0.3616805 -0.34155482 0.47434378 -0.19292311 0.5770171 -0.42523655 -0.093221545
-0.08365594 0.052114226 -0.417544 -0.42469755 0.6589723 0.58892983 -0.37682527 -0.35631138
0.60457546 0.58233 -0.30542192 -0.49952924 -0.31340995 0.3703294 -0.3709019 -0.21061286
-0.032051656 0.45530772 -0.39255804 -0.3424185 -0.44077247 -0.34090245 -0.3722384 0.3745693
-0.39554954 0.5001335 0.43351376 0.45029363 -0.24207786 0.5723066 -0.22003289 0.46404597
0.67446816 0.019302601 -0.36428922 0.5853501 -0.043317124 -0.49998468 0.44724175 -0.20769162
-0.30127344 0.5776112 -0.4319657 -0.37844375 -0.39862302 0.37337214 -0.2785498 0.29695162
0.38970307 -0.17903967 -0.41588655 0.5990134 0.59977555 0.45242906 0.04214374 0.41545096
-0.31133017 0.025108203 -0.35894477 0.6567616 0.51794684 -0.47223932 -0.37314987 -0.4191232
0.10724248 0.69347894 0.15810142 -0.51634675 -0.39953536 0.070858695 0.18723261 -0.04087398
0.6039446 0.3391149 0.20615831 -0.41002083 0.520642 -0.16057827 0.45089674 -0.4638303
0.04971875 -0.44198677 0.4910215 -0.6386729 -0.39631805 1.3841555 -0.060142726 0.35157666
0.5167086 0.48757216 0.53356826 0.12028241 -0.36778912 -0.32995737 1.058119 0.3453224
0.45493895 -0.22947945 0.30085567 0.6863802 0.72499526 0.4066144 -0.40736222 0.6377277
-0.33876002 0.4691901 0.04630073 -0.39912334 -0.27857804 -0.13765748 0.0074831923 -0.3612785
-0.39619154 -0.3124455 -0.23540954 -0.34250212 -0.19917375 -0.32217976 0.41905665 0.39687157
1.4008034 0.2600398 -0.4417833 0.3498456 -0.25788337 0.670182 -0.5436132 -0.6093441
-0.35993367 0.010125536 -0.37408462 -0.5097148 0.565502 0.65797704 -0.3283666 -0.34362876
0.59608006 0.5935345 -0.439083 -0.41562542 -0.5612294 0.4180176 -0.19254504 -0.21848889
0.03151408 0.49074847 -0.32240632 -0.23481874 -0.39841408 -0.40001076 -0.5556472 0.37514246
-0.3735196 0.58608925 0.30121246 0.57637423 -0.2802588 0.5272161 -0.042469688 0.35637677

layer3.bias f4 [4]
00000000: 4043 ca3c 08d6 c43b 4f44 fe3c c929 9c3c
0.02469027 0.00600696 0.031038431 0.019062893
